checkpoints/test_DLinear_custom_ftM_sl96_ll48_pl96_dm512_nh8_el2_dl1_df2048_fc1_ebtimeF_dtTrue_test_1/checkpoint.pth (torch, 113815 bytes, 6 tensors)

Linear_Seasonal.weight f4 [96, 96]
00000000: 0f4a 113d 3ee5 053d 1b35 ad3c ffe4 c3bb
00000010: 2ef0 e1bc 910b b3bc 3347 8ebc 7a2d 71bc
00000020: 2fd8 47bc 699e 14bc e003 aebb 0c5b 22bb
00000030: 24ed daba eb91 86ba e79a e5ba b201 8cbb
00000040: 724f eebb 3cfe 29bc d2df 6bbc a277 9bbc
00000050: 3ab9 d13a 9a20 873c 449c d03c 316d 023d
00000060: 7179 0f3d ef49 0a3d 9fea ef3c 558a b93c
00000070: de1a 3e3c 719f 45bc fb1a 56bc 60e5 26bc
00000080: cd3a f9bb f889 95bb 01e6 a3ba f478 583a
00000090: 88bb a23a 63d1 d63a 86ea 083a 29dd 21bb
000000a0: fd2e c3bb 9843 1abc 3d3b 63bc 73a7 96bc
000000b0: 5129 763a ed92 813c ac6c cd3c 02ca 013d
000000c0: 09ec 0e3d eaf5 093d 996e ef3c af6a b83c
000000d0: 36ee 363c 0a3c 5ebc 7a86 66bc cfef 38bc
000000e0: 9a7a 14bc d57e d5bb 659a 7fbb ecf9 24bb
000000f0: 33bc 29bb fd5a 25bb 72b4 6bbb fe56 cabb
00000100: d948 16bc 027e 49bc d320 85bc ce24 9dbc
00000110: ec36 7f3b d326 9b3c 11e4 e33c 0df6 0a3d
00000120: c6da 173d 3ccc 143d 05fc 063d fca1 e53c
00000130: a0d2 9f3c 799f 11bc a1dc 6bbc f8cb 60bc
00000140: 0b70 56bc 28fd 48bc 3557 3abc f6a6 3abc
00000150: 13a8 41bc c4e3 40bc 7923 4abc a705 63bc
00000160: 6e92 7ebc 4aa5 8bbc e160 9abc 38c5 b5bc
00000170: be1b b7bc 90d6 423c 98b1 033d 51d5 263d
00000180: cfcc 073d c2e6 213d 2905 193d d033 e73c
00000190: 666b c43b 5f83 aebc 23f2 adbc 2688 90bc
000001a0: 08a8 77bc e467 4bbc d486 0ebc 4f16 88bb
000001b0: f049 afba 8598 f9b9 9c2c 8039 8115 64ba
000001c0: e429 8abb cc44 05bc d525 48bc 98a9 8dbc
000001d0: a034 c2bc f2e5 8fbb 2c83 5b3c 277b cc3c
000001e0: eda9 073d 90f5 163d 817b 123d 0236 003d
000001f0: 90d5 c63c f89c 4e3c ed1a 47bc e0a0 6cbc
00000200: 0fd2 40bc 62a7 11bc d7d8 abbb 6c02 97ba
00000210: 58f9 a93a c06e 0c3b f2c4 343b c2c3 a93a
00000220: 0460 22bb 902f dfbb 1fc1 37bc 3c97 87bc
00000230: 8553 b4bc 510b 90bb 55a5 553c 2bea ca3c
00000240: 0c2b 073d 31aa 163d e735 123d dfe7 ff3c
00000250: fafc c53c f678 453c f0fb 58bc 6fc3 7abc
00000260: db52 51bc 4dc4 27bc b347 eabb 6183 7ebb
00000270: 9b2d 11bb 8e26 00bb 19d7 e3ba 7f82 4dbb
00000280: 0a1a d5bb 7f67 2abc 874e 6bbc 7fdd 9dbc
00000290: 6a35 bdbc 285d f5ba 7988 843c 0483 e13c
000002a0: c095 103d 809b 1f3d f847 1d3d 78ef 0f3d
000002b0: 0ae2 f53c fcf8 ab3c 1f22 04bc 013f 7abc
000002c0: 4cba 72bc 1a0e 66bc 195e 50bc ff8e 3cbc
000002d0: da12 32bc 4a6a 2bbc de3d 1cbc a36a 20bc
000002e0: 7b4e 40bc 81c0 62bc 5dc4 80bc d7af 91bc
000002f0: b36a abbc 4e6f c0bb be0c d63c 1e22 1c3d
00000300: 65d5 cb3c 1cf1 233d c227 303d 4e9a 263d
00000310: cf7e 093d d450 933c 4599 43bc e812 acbc
00000320: aa39 92bc 56b5 75bc f9b5 40bc 3800 f2bb
00000330: 43ad 40bb 5904 67b9 599f 3f3a acd9 853a
00000340: eb52 8eba d54f b2bb 602b 28bc bfaa 74bc
00000350: 1dc2 a8bc bde1 dcbc 9bc0 01bc 37db 5b3c
00000360: 3166 df3c 3914 113d 2221 1e3d 623f 183d
00000370: 1ef9 033d e041 c93c 3192 353c edd5 70bc
00000380: 237a 87bc 31d2 56bc 3130 1dbc 9972 abbb
00000390: 77f0 48ba 04a2 0e3b 2660 503b cc6d 5b3b
000003a0: 3552 783a e3ea 75bb fbda 12bc cb7d 64bc
000003b0: eed3 a0bc 52a6 d3bc a705 fcbb 93b0 583c
000003c0: 0514 de3c 8eaa 103d 5bce 1d3d a205 183d
000003d0: b217 043d 3ba2 c83c 8337 2e3c c93e 79bc
000003e0: 57ec 8cbc df34 66bc f9ba 32bc 91c2 edbb
000003f0: 0c82 71bb 523d d2ba 5ac8 a3ba 7008 bfba
0.03547102 0.032689326 0.021143487 -0.005978226 -0.027580347 -0.021856101 -0.017367935 -0.014720315
-0.012197538 -0.009070971 -0.0053105205 -0.0024773506 -0.0016702753 -0.0010266876 -0.0017517478 -0.004272663
-0.007272654 -0.010375556 -0.014396625 -0.018977944 0.0016000636 0.016495038 0.025465138 0.031842414
0.035027925 0.033761915 0.02928668 0.02264897 0.011603085 -0.01206194 -0.013067956 -0.010186523
-0.0076058866 -0.0045635663 -0.001250446 0.00082577695 0.0012415508 0.0016389306 0.0005222935 -0.0024698472
-0.005956529 -0.00941553 -0.013869104 -0.018390393 0.0009390312 0.01581713 0.025076233 0.03168679
0.03489307 0.033681788 0.029227542 0.022511808 0.011165192 -0.013564119 -0.014070148 -0.011287644
-0.009062434 -0.0065153637 -0.0039001938 -0.002517338 -0.002589953 -0.0025231235 -0.0035965708 -0.006174921
-0.009172642 -0.012298109 -0.016251003 -0.019182589 0.0038942648 0.018939411 0.027818711 0.03392606
0.037073873 0.036327586 0.03295519 0.028031342 0.019509614 -0.008888119 -0.014395864 -0.013720505
-0.013088237 -0.012267388 -0.011373331 -0.011392346 -0.011819857 -0.011773054 -0.012337559 -0.013856328
-0.015537841 -0.01704659 -0.018845024 -0.022188768 -0.022352096 0.011891976 0.03215179 0.040730778
0.033154305 0.03952671 0.037358437 0.028222948 0.005994248 -0.021302877 -0.021233624 -0.017643046
-0.015115745 -0.012414906 -0.008699138 -0.00415305 -0.0013373476 -0.00047606617 0.000244473 -0.0008700714
-0.0042164195 -0.008134078 -0.012216051 -0.017292783 -0.023706734 -0.0043914253 0.013397973 0.024961067
0.03312104 0.03685528 0.035762314 0.031301506 0.024271756 0.012610666 -0.012152416 -0.014442652
-0.011768832 -0.008890005 -0.005244355 -0.0011521108 0.0012967987 0.0021428317 0.002758321 0.0012952017
-0.0024776468 -0.00681109 -0.011215477 -0.016551606 -0.022012481 -0.0043958803 0.0130399065 0.024769863
0.033000037 0.0367834 0.035695937 0.031238494 0.02416848 0.012052765 -0.01324366 -0.015305384
-0.012776102 -0.010239673 -0.0071496605 -0.0038835632 -0.0022152427 -0.001955423 -0.001738283 -0.00313583
-0.0065033482 -0.010400652 -0.014361984 -0.019270657 -0.023096759 -0.0018719779 0.016178356 0.027528293
0.035299063 0.038966656 0.038398713 0.035140485 0.03001501 0.020992748 -0.008064776 -0.01527381
-0.014814924 -0.014041448 -0.012717747 -0.011508702 -0.010868752 -0.010462353 -0.009536235 -0.009791049
-0.011737461 -0.013839842 -0.015718633 -0.017784042 -0.020924902 -0.0058726436 0.026129123 0.038118474
0.024882028 0.04002486 0.043006666 0.0406745 0.0335682 0.017982878 -0.011938398 -0.021005109
-0.017849762 -0.014996847 -0.011762136 -0.00738528 -0.0029400147 -0.00022031496 0.00073098164 0.0010211966
-0.0010858452 -0.0054416456 -0.010264248 -0.014933287 -0.020600373 -0.02696311 -0.007919456 0.013418964
0.027270408 0.035419676 0.038605817 0.03716982 0.03222 0.024567544 0.011082218 -0.014699441
-0.016537732 -0.013111637 -0.009594009 -0.005232167 -0.00076652266 0.002176405 0.003179559 0.0033482192
0.0009472699 -0.0037524037 -0.008963342 -0.013946007 -0.019632306 -0.025836144 -0.0076911035 0.013225692
0.027109155 0.035318904 0.038526874 0.037114747 0.03224916 0.02449142 0.010633352 -0.015212723
-0.01720254 -0.014050691 -0.010908836 -0.00725586 -0.0036851196 -0.0016040003 -0.0012495623 -0.0014574658

Linear_Seasonal.bias f4 [96]
00000000: aafe b33c 565d 963d a792 b73d a68a a53b
00000010: 4169 913b 1343 1f3d 6c72 933c b0f0 623d
00000020: 9757 a2bd 413e b83c 6802 75bd 02ce ecbc
00000030: 8d58 05ba fb0a d3bc 04d3 e5bc e2e0 323d
00000040: 4363 56bd 721a 5b3d 631c 593d d169 a9bd
00000050: 8093 fe3c a851 1cbd 8530 fbbc c9f1 96bc
00000060: a21c bf3c 63f1 df3b 08ca 31bd 13fc 7d3d
00000070: ba22 34bd ca72 1abd 4228 913c 4a07 583d
00000080: 5958 123c 1c38 27bb 8649 1d3d f77a 283d
00000090: 3399 0e3d d367 733c 05c8 403d 3253 613d
000000a0: 40f9 873c 1bf9 15bc 0342 273d ffaf ff3c
000000b0: 10bc a4bc a83f 16bd 6e5c b03d 843c 6c3d
000000c0: 2707 253d 527f 11bd c5a2 a33b db26 633d
000000d0: 22da 443d 6690 38bd 6130 ab3d 13c6 093c
000000e0: b4d6 76bd 4652 7cbd 050b 9a3d c9dc e4bc
000000f0: 83f9 783a b991 b9bc 4ecb 7ebd c0fe 86bd
00000100: 58db bd3d 6e18 9ebd 006a 62bd a7a5 af3b
00000110: 656b 3a3d 876d cdbc 4bfe 693d 4886 cdbc
00000120: 9223 c0bc a0fc 3d3d 9502 19bc f78e 60bc
00000130: f9e1 a53b fdad 953d 6d7c 063d a979 24bd
00000140: 6b6f a3bc f837 9d3d 7001 22bd ce5c a63d
00000150: e0cb 0dbc dc71 0e3d b804 8e3c 9f74 3bbb
00000160: 8da5 ecba ff69 43bd f95c 5e3c ab95 7a3d
00000170: e8fb 843d bd46 b3ba 828d 233d 29f8 22bc
0.02197202 0.07342021 0.089635186 0.0050519286 0.004437596 0.038882326 0.017998897 0.05540532
-0.07926863 0.022490622 -0.059816748 -0.028906826 -0.00050867425 -0.025762072 -0.028054722 0.043671496
-0.052340757 0.053492017 0.053005587 -0.08272136 0.031076193 -0.03816381 -0.030662784 -0.018425839
0.023329083 0.0068341955 -0.043405563 0.062007975 -0.04397843 -0.037707128 0.017719392 0.052741326
0.008932197 -0.0025515622 0.038400196 0.041132893 0.03481407 0.014856297 0.047065753 0.05501098
0.016598344 -0.00915363 0.040834438 0.031211851 -0.020109206 -0.0366818 0.086113796 0.0576749
0.040290024 -0.035521813 0.004993769 0.055456977 0.04805959 -0.045059584 0.08358837 0.008409041
-0.06026335 -0.0616019 0.07521633 -0.02793731 0.00094976294 -0.022652494 -0.062205605 -0.065915585
0.09270352 -0.07719503 -0.05527687 0.0053603235 0.045512576 -0.02507664 0.05712728 -0.025088444
-0.023454461 0.0463835 -0.0093389945 -0.0137059605 0.0050623384 0.07308576 0.032833505 -0.040155087
-0.01995059 0.07676691 -0.039552152 0.0812317 -0.008654565 0.034776554 0.017336234 -0.0028603447
-0.0018054709 -0.047708508 0.013571971 0.06117789 0.0649336 -0.0013677698 0.039929874 -0.009946861

Linear_Trend.weight f4 [96, 96]
00000000: 56fe 0a3d 61be 0b3d c676 0c3d f596 0c3d
00000010: 2f0a 0b3d 2e4b 053d 2528 eb3c 8abe a73c
00000020: b35b 193c 168a f939 b71a 93bb cd61 cebb
00000030: e180 d5bb b2a1 f6bb ec5c 1bbc 90c2 32bc
00000040: 641e 3fbc 4fd1 3ebc 550b 3abc e0ce 32bc
00000050: d09c 28bc 508e 1bbc 75e9 0cbc 884a ffbb
00000060: 0c36 eabb 9b35 d7bb bb3b cbbb 9fef c6bb
00000070: 579c c4bb 447a c0bb 3827 babb 8b44 b1bb
00000080: 4912 a2bb d654 82bb 1ab1 02bb 1137 463a
00000090: d5c6 293b e707 e43a 6ca1 09ba b564 26bb
000000a0: b221 77bb b9b8 92bb f4c3 a1bb 7a7c abbb
000000b0: 0069 afbb b08b adbb 1f42 a9bb 8fe5 a9bb
000000c0: 665e b1bb 1ecb bbbb b71e cdbb 73dc e3bb
000000d0: c66e f7bb 0005 01bc 0f68 ffbb 293c e9bb
000000e0: e01c b7bb 7a87 34bb 2dfe ef3a 8235 f33b
000000f0: 5ba9 413c 0ac0 563c 199a 4c3c 6246 3e3c
00000100: dee5 363c 7ac1 333c a8e9 333c 6d89 383c
00000110: 9333 433c e759 533c 357d 653c ecae 733c
00000120: 0b07 7d3c 95e0 823c 3b91 863c 81c4 8a3c
00000130: 4039 933c 116f a23c f3a2 b83c 101c d53c
00000140: 0992 f13c 64fa 063d 5fff 143d 07f6 213d
00000150: 7fba 293d 1ba4 2e3d bf84 333d f8c4 383d
00000160: 07d8 3c3d 7bb2 3e3d e88f 3e3d 2a37 3d3d
00000170: 2c65 3b3d 0082 393d a6b8 373d 1b12 363d
00000180: 5446 023d 4cfd 023d f1ef 033d 7ec6 043d
00000190: 5f95 043d b3a6 013d 0d64 f03c 7aa8 c13c
000001a0: 4bf3 5d3c aacc 533b d1a9 68bb 0d4e dcbb
000001b0: 6a51 e1bb 6dee acbb 053c cbbb f338 08bc
000001c0: c348 26bc aabc 31bc 6716 34bc 9a08 32bc
000001d0: 59c2 2cbc d67f 23bc 8588 16bc 1681 07bc
000001e0: 01e7 f4bb 068a dfbb d37b cdbb 14ab c3bb
000001f0: 8a4a c2bb 3d42 c3bb 431e c3bb 5d1b c0bb
00000200: 96d4 b8bb 7af5 a9bb 4c5b 86bb 9afd ebba
00000210: 94ac b83a d32f 6a3b 2f0b 353b 68ae 9b39
00000220: c13a 01bb dc94 5ebb ee6e 8cbb 82df 9fbb
00000230: 2e41 acbb 1f67 afbb bb50 aabb f3fb a1bb
00000240: b383 9fbb a6fc a4bb 8a05 afbb 6ab7 c1bb
00000250: f4fd dabb baa4 f2bb 6494 00bc 6921 00bc
00000260: 6520 eabb 06cd b5bb cddd 21bb 4b9c 283b
00000270: 6867 0f3c f006 613c c7f9 773c bf7e 6d3c
00000280: e901 5e3c 3ad4 513c 3b1e 4e3c d7c1 4e3c
00000290: 72e2 543c 0ee3 613c 3d6b 753c 487e 853c
000002a0: aaf4 8d3c 43f4 933c da35 993c b708 9d3c
000002b0: 81bb a03c 815f a83c 1d14 b83c 1ad0 cc3c
000002c0: 9bf7 e53c 1b2d 003d 056e 0d3d 162d 1b3d
000002d0: a87e 233d aa01 273d 856d 273d abad 283d
000002e0: 4d65 2c3d 2d0d 313d 8765 343d c59d 353d
000002f0: 5738 353d 09f7 333d be52 323d 3d84 303d
00000300: 647c dd3c a6d8 de3c bef3 e03c eb5f e33c
00000310: f748 e43c 93c2 df3c 2b9d ce3c 0ecb a43c
00000320: 55af 3b3c 6f75 373b 8961 41bb 2eba c7bb
00000330: e5e1 cdbb e854 65bb 24a5 00bb 44ab 51bb
00000340: 2364 bbbb e387 fdbb d268 10bc af0c 18bc
00000350: 6beb 19bc b897 16bc 082d 0ebc 4f49 01bc
00000360: b7ee e5bb 446a ccbb 7d6f b9bb ffa9 abbb
00000370: 3496 a7bb 0211 acbb 3324 b3bb 62d7 b7bb
00000380: ffe2 b6bb 5670 afbb 8764 9bbb b693 56bb
00000390: cc5b fdb9 e073 443b c723 a73b 5980 853b
000003a0: c0ce b23a 30d8 94ba cb5f 37bb ceba 7cbb
000003b0: 8ac9 95bb 70a9 a1bb 90d2 a1bb 4dd7 98bb
000003c0: cc8b 8dbb 53c9 88bb 3f49 8dbb 3c42 98bb
000003d0: 9bf9 acbb 374d c9bb 4baf e2bb e0c6 efbb
000003e0: 4b6d eabb 5ba1 ccbb 0d11 8bbb 5308 28ba
000003f0: a83b 9e3b 86e4 333c 540b 7d3c 71be 883c
0.03393396 0.034117106 0.03429296 0.03432365 0.03394526 0.0325424 0.028705666 0.020476598
0.009360242 0.00047595863 -0.0044892686 -0.00629828 -0.0065156077 -0.0075266 -0.0094826035 -0.010910645
-0.0116649605 -0.011646583 -0.011355241 -0.010913581 -0.010291293 -0.009494379 -0.008600582 -0.0077908672
-0.007147556 -0.0065676696 -0.006202189 -0.0060710455 -0.0060000825 -0.00587395 -0.005680945 -0.0054097823
-0.0049460274 -0.0039773984 -0.0019941987 0.0007561306 0.0025905867 0.0017397375 -0.0005250189 -0.0025389616
-0.0037709293 -0.004477587 -0.0049366895 -0.0052333446 -0.005353093 -0.005296193 -0.005165353 -0.005184836
-0.0054128645 -0.0057310006 -0.006259765 -0.00695377 -0.007551047 -0.007874727 -0.007794387 -0.0071177674
-0.005588159 -0.002754657 0.0018310003 0.00742215 0.011820163 0.013107309 0.012487912 0.01161346
0.011163203 0.010971421 0.010981001 0.011263234 0.011914152 0.012899852 0.014006902 0.014873248
0.015443574 0.01597623 0.016426673 0.016939403 0.017971635 0.019828351 0.022538638 0.026014358
0.02948858 0.032953635 0.036376353 0.03954127 0.041437622 0.042636972 0.04382777 0.04510972
0.046104457 0.04655693 0.04652396 0.046195187 0.045750782 0.045289993 0.04485383 0.04445086
0.03180535 0.031979844 0.032211248 0.03241586 0.032369014 0.031653117 0.029344583 0.023639906
0.013546775 0.0032318034 -0.003550161 -0.0067231716 -0.0068761604 -0.005277446 -0.0062022232 -0.008314359
-0.010149184 -0.010848204 -0.010991669 -0.010866309 -0.010544383 -0.009979209 -0.009187822 -0.008270523
-0.007473827 -0.0068218736 -0.0062708645 -0.005971322 -0.005929296 -0.005958824 -0.005954535 -0.005862637
-0.0056405766 -0.005186734 -0.004100239 -0.0018004656 0.0014089518 0.0035734072 0.0027625074 0.00029693847
-0.0019718858 -0.0033963239 -0.004285685 -0.004878939 -0.0052567935 -0.005352869 -0.005197612 -0.0049433648
-0.0048679947 -0.005035001 -0.0053412365 -0.0059117572 -0.0066831056 -0.007404891 -0.007847879 -0.007820466
-0.007144975 -0.0055481223 -0.0024698854 0.0025727923 0.008752681 0.013734564 0.015135235 0.014495551
0.01355026 0.012806946 0.01258045 0.012619457 0.012993442 0.013787044 0.014979181 0.016295567
0.017328579 0.018060809 0.018702436 0.019169195 0.019620659 0.020553352 0.022470528 0.025001574
0.028072169 0.031293016 0.03452875 0.037884794 0.03991571 0.04077307 0.04087593 0.041181248
0.042088795 0.043225456 0.044042137 0.044339914 0.044243183 0.043936763 0.04353594 0.043094862
0.027036853 0.027202915 0.027459975 0.027755698 0.027866824 0.02731446 0.025221428 0.020116355
0.011455377 0.002799358 -0.0029507598 -0.0060951924 -0.0062830322 -0.0034993235 -0.0019629681 -0.0031992951
-0.0057187243 -0.007737146 -0.008814054 -0.009280368 -0.009394507 -0.009191446 -0.0086777285 -0.007891013
-0.0070169824 -0.006238254 -0.0056590424 -0.005238771 -0.005114341 -0.005251051 -0.005466962 -0.0056103924
-0.0055812593 -0.0053539677 -0.0047422084 -0.0032741851 -0.00048324314 0.0029976293 0.0051007005 0.004074138
0.0013641939 -0.0011355933 -0.002798068 -0.0038563493 -0.0045711445 -0.0049335286 -0.004938431 -0.0046643377
-0.0043196436 -0.0041743903 -0.00431171 -0.0046465676 -0.0052787787 -0.006143238 -0.006917869 -0.007317409
-0.007154142 -0.006244821 -0.004243976 -0.0006409932 0.004828889 0.010979777 0.015444595 0.016692372

Linear_Trend.bias f4 [96]
00000000: 8213 b5bc 634f 93bd c855 bdbd 0c2c 64bd
00000010: 5902 58bd 177d 0fbd b432 e6bc 13ba 60bd
00000020: 3fee a13d ae5a d1bc 9749 3c3d 59eb 003d
00000030: 624a 153c 5bd4 12bd def9 bb3c 28e6 4cbc
00000040: 95d6 183d 1e2c dbba 2261 8abd 5aca 943d
00000050: 93ea d43c 0575 a1bc f64b 83bb 299a df3c
00000060: 4222 b2bc 7574 bd3b ce8f fa3c fafb 5cbd
00000070: 69f1 0c3d cc7a 053d 0f42 bcbc e952 3abd
00000080: e762 41bc fb1d 763b 00a6 5e3d f33e d7bc
00000090: 0dfc 253d 06de a5bc 12d0 483d 1b08 e43c
000000a0: 7037 aabb 42c8 1d3d 33d1 6fbd ae6c d0bc
000000b0: f161 ff3c 7b20 063d 80b1 a2bd a089 28bd
000000c0: 5617 7fbd a01e 8a3d 8d46 5fbd a0ef 30bc
000000d0: aa8d 43bd 3f2b 913c c73e a4bd 9681 78bd
000000e0: 0db2 813d 16e8 373d 1c36 a4bd e5ef 133d
000000f0: 67a3 01bb 1ba9 5dbd d0bc 983d 51f3 6f3d
00000100: fbfe c0bd 70eb a93d bb86 4c3d 009b 9f3c
00000110: 2cda 21bc 192f 04bd 6407 27bd e5fd ddbb
00000120: 9378 283d 489f 42bd 6a19 9f3a 84fe 03bc
00000130: c3ef 883c 4925 87bd 41cb 2ebd 7c1c 673d
00000140: 653b 66bb 6f7f 9dbd 4664 653d b246 b4bd
00000150: 9626 e5bc f31d 26bd 9a65 4b3d 1d52 6c3c
00000160: f25e 543b 9613 f63c b904 a3bc 9ce4 88bd
00000170: 5449 0abd 063f 243d be04 bb3a a498 72bd
-0.022104029 -0.07192876 -0.09244877 -0.05570607 -0.052736614 -0.035031404 -0.028100349 -0.054864954
0.0790677 -0.025555935 0.04596862 0.031474445 0.0091119725 -0.03584705 0.022946294 -0.012506045
0.037314016 -0.0016721522 -0.06756808 0.07265158 0.02599076 -0.01970912 -0.004006858 0.027295189
-0.021744851 0.005781705 0.03058615 -0.05395124 0.034409914 0.03258781 -0.022980718 -0.045489226
-0.011803365 0.003755449 0.05435753 -0.026275134 0.040523577 -0.02024747 0.049026556 0.027835896
-0.005194597 0.03852106 -0.058549117 -0.025442448 0.031174632 0.03274582 -0.07944012 -0.041146874
-0.062278114 0.067441225 -0.05451064 -0.010799319 -0.047742523 0.017720817 -0.08019786 -0.060670458
0.063327886 0.04489907 -0.08018133 0.036117453 -0.0019781233 -0.05411635 0.07457888 0.058581654
-0.09423634 0.08296859 0.049933176 0.01948309 -0.009878676 -0.03227148 -0.040778533 -0.0067746514
0.041130614 -0.047515184 0.0012138311 -0.008056287 0.01671589 -0.065989085 -0.042674307 0.05642365
-0.0035130617 -0.07690322 0.05600383 -0.088025466 -0.0279725 -0.040555906 0.04965744 0.014423874
0.0032405225 0.030038636 -0.019899713 -0.06684229 -0.033761337 0.040099166 0.0014268381 -0.0592276

Linear_Decoder.weight f4 [96, 96]
00000000: 281d d2bc 4048 663d 2831 5abc 3471 223d
00000010: 5ad0 c3bd 200f 58bd 9c4f 163d 9031 593d
00000020: 3403 653d e0d6 0d3c a418 953d f0b7 9ebd
00000030: 61b4 93bd 9f9e b0bd 7c8c a8bd c1ed 96bd
00000040: 3072 603c c057 02bb 9faf 40bd e4fe 9dbc
00000050: 0626 9e3d 3063 7b3d 7021 88bd de24 bcbd
00000060: acac 883d a849 fe3c 4063 afba ec44 c2bd
00000070: 3cde 6d3d 6fbe 49bd c072 9fba 60fd 07bd
00000080: 05be a2bd da94 13bd 6a0d b13d e0da bf3c
00000090: 894c 98bd e694 b6bd 301f f73b 902e ad3c
000000a0: 1480 97bc d026 5f3d 3a04 6cbd b010 d33b
000000b0: 403e ef3a f0fe 073d 4a6c b23d 8014 9f3b
000000c0: 48e5 24bd f67c 83bd 96c2 b43d a281 9e3d
000000d0: b04f d2bc 403f af3d d0d3 38bc 3c1f 10bd
000000e0: 8055 cd3d 0851 99bd 2899 333d ecdf c3bd
000000f0: 0848 c33d 5634 6cbd b30b c8bd 4c61 8dbc
00000100: 1a09 bf3d 945c 66bd 24f6 c73d 54e9 403d
00000110: 90b8 763c f0d7 16bd f095 063d 7fab c6bd
00000120: 4862 213d 70b1 fa3c c085 153d d7e4 51bd
00000130: 76d1 833d fce1 f0bc 25fb 4abd e429 163d
00000140: 3247 c13d 5098 b43d 88c9 363d e880 c7bc
00000150: 683c febc 388f 11bd c24b a33d 1c30 863c
00000160: ec2d b2bd e004 eebb 046a 643d b824 c83c
00000170: e088 77bc 982b 233d aca6 293d b027 bb3b
00000180: 9bcb d0bd f82d 7fbd 94c3 a93d 83cd 73bd
00000190: af92 9bbd c081 a53a 90e0 b4bd 2948 5fbd
000001a0: 34c7 bd3d eb79 75bd 10b5 19bc b6a6 863d
000001b0: 163f 903d cce5 8bbd ed47 8cbd 4820 923c
000001c0: 9cd3 aa3c 34e6 f8bc 2f2b 45bd b04d ba3c
000001d0: 14ca b8bd bc3c 423d 868b 903d acb8 efbc
000001e0: a6f2 9fbd 00f6 c53b 7c01 d3bc 2691 883d
000001f0: 4498 a8bd f809 a03d d8f4 183c 360b cd3d
00000200: c086 acba 3ed3 56bd 0070 6b3d 046f 833c
00000210: 6037 83bb 809e ca3d b81d 4a3d 30de ad3c
00000220: f503 63bd 1c33 9abd 1067 283c 7f63 52bd
00000230: 12a3 babd e0fa f13c 40f8 80ba 686c 1e3c
00000240: 8a69 ad3d f85b aa3d 4073 913c 9259 ba3d
00000250: e438 a7bc 9062 d33b c2fb 9abd 9073 afbb
00000260: f85e a4bc 407b b13c b4ea 8c3c 0835 5cbc
00000270: 7822 833c f8d8 613d 44f9 4e3d 22b6 c43d
00000280: ea83 a83d 2019 153d fe75 ab3d 09bd 31bd
00000290: ec44 483d d008 91bc 983f 1cbc 9e6a be3d
000002a0: b877 1d3d 5b3b 62bd ff99 95bd 84cf 443d
000002b0: 5816 3ebd d108 c2bd 2c3d c7bd a0f7 413d
000002c0: 6ab3 c03d 08f9 6ebc 066f 0cbd e01c 46bb
000002d0: 600a 92bb b03f bbbd 58ed b6bc b464 8e3d
000002e0: 20ec b3bc 3a91 7dbd d45f 95bd 900c 863b
000002f0: 84c0 99bc 94df c9bd 6c05 8cbd 6619 b43d
00000300: 8c64 5f3d bcca 36bd 325e ac3d 8474 f0bc
00000310: 32bf 9f3d 8b1a 42bd 80de 363d 8ea4 67bd
00000320: c897 1c3d 089f a0bd d090 303d aea6 64bd
00000330: 604d db3c 52cf c33d 480b 653d 2009 c3bc
00000340: 32df 833d 109f cfbb a48d a03c 8f6b 9ebd
00000350: 90c5 20bd a4c6 15bd ec19 923d 32df 9f3d
00000360: 6c79 e7bc 98cf 293d 72b3 1ebd d4a1 793d
00000370: e01b d1bb e6f3 7dbd 1c24 8a3d b192 bcbd
00000380: debd 74bd 00f5 b5b9 c069 373c 30d9 733c
00000390: 1883 73bc 3814 ed3c 10e8 c43c e070 b13d
000003a0: 4bbd 74bd 1b08 79bd a80b e53c fcb4 6d3d
000003b0: 7769 45bd 9280 cc3d d4be d03d 1e33 a1bd
000003c0: 04b5 8e3d d86b 8dbd 19fe 96bd 2008 cabd
000003d0: ac91 3abd 00c5 b2b9 d31f 84bd caca c53d
000003e0: 1860 1d3c d027 163d bc19 933d 78d8 003c
000003f0: 1ad3 c33d 7aee c03d fd61 c6bd 909f 8f3c
-0.025648668 0.056221247 -0.013317384 0.03965874 -0.09561224 -0.0527488 0.036697015 0.053025782
0.055911258 0.008657187 0.072800905 -0.07749927 -0.07212139 -0.086240046 -0.0822992 -0.07369567
0.013699099 -0.001988873 -0.047042485 -0.01928658 0.07722096 0.06137389 -0.06647003 -0.09186719
0.066735595 0.031040981 -0.0013381019 -0.09485802 0.058073267 -0.049253877 -0.0012164935 -0.03320062
-0.079463996 -0.036030628 0.08645137 0.023419797 -0.07436473 -0.08915119 0.0075415596 0.021140367
-0.01849369 0.054480374 -0.05762122 0.0064411983 0.0018252805 0.03320211 0.08712061 0.0048547387
-0.040257722 -0.06420319 0.08826177 0.07739569 -0.025672764 0.08556986 -0.011280969 -0.035186037
0.100260735 -0.074861586 0.043847233 -0.09564194 0.09535223 -0.0576671 -0.097678564 -0.017258309
0.09327908 -0.056240633 0.097637445 0.04709752 0.015058652 -0.036827028 0.032857835 -0.09700679
0.03940037 0.030602187 0.036504507 -0.05124363 0.06436436 -0.029404633 -0.049555916 0.036661044
0.094374076 0.08818114 0.04462579 -0.02435346 -0.031034663 -0.035536975 0.07973434 0.016380362
-0.08700165 -0.0072637647 0.055765167 0.024431571 -0.015108317 0.039836496 0.041418716 0.005711518
-0.10195085 -0.0622997 0.08289257 -0.059522163 -0.07596337 0.001262717 -0.088318944 -0.054512177
0.092665106 -0.059930723 -0.009381548 0.06574766 0.07043283 -0.0683094 -0.06849656 0.017837659
0.020852856 -0.030383207 -0.048136886 0.022742122 -0.09022918 0.047421202 0.07057862 -0.029262863
-0.078099534 0.0060412884 -0.025757544 0.0666831 -0.08232167 0.078144014 0.009335719 0.10011904
-0.0013162717 -0.05244755 0.05747986 0.016044147 -0.004004404 0.09893513 0.04934475 0.021224111
-0.055423696 -0.075292796 0.010278478 -0.051364418 -0.091131344 0.029538572 -0.0009839609 0.009669401
0.084673956 0.08318323 0.01775515 0.090991154 -0.02041287 0.0064509585 -0.0756755 -0.0053543523
-0.020064816 0.021665215 0.017201759 -0.013440378 0.016007647 0.05513856 0.050530687 0.096050516
0.082282856 0.036400914 0.083721146 -0.04339317 0.048893854 -0.017704397 -0.009536646 0.09297679
0.03844425 -0.055232387 -0.07304763 0.048049465 -0.046408027 -0.09474338 -0.097284645 0.047355294
0.094092205 -0.014585741 -0.034285568 -0.0030229613 -0.004456803 -0.09143007 -0.022329971 0.06952801
-0.02196318 -0.061906077 -0.072936684 0.004090853 -0.018768556 -0.09857097 -0.06836972 0.08793907
0.05453925 -0.044626936 0.08416404 -0.029352434 0.078001395 -0.047388595 0.044645786 -0.056553416
0.038230687 -0.07842833 0.043106854 -0.05582302 0.026770294 0.095610276 0.05591896 -0.023808062
0.064390555 -0.0063361004 0.01959879 -0.07735359 -0.03925091 -0.03656639 0.071338505 0.07806243
-0.02825614 0.041457742 -0.03874535 0.060945347 -0.006381497 -0.062000178 0.067451686 -0.09207667
-0.059751384 -0.0003470555 0.011194646 0.0148833245 -0.014862798 0.028940305 0.024036437 0.08664107
-0.059750836 -0.060798746 0.02795966 0.05803393 -0.048196282 0.0998546 0.101926476 -0.07871078
0.0696812 -0.06905335 -0.07372684 -0.09864831 -0.04554908 -0.00034097582 -0.064513825 0.096578196
0.00960543 0.036659062 0.07182643 0.00786411 0.09561749 0.09420486 -0.096866585 0.01753214

Linear_Decoder.bias f4 [96]
00000000: 61ee 8dbd f8f5 48bc 2466 ecbc bad2 66bd
00000010: 70db f23c 9436 60bd 6013 e53c 0ef7 cdbd
00000020: 78a2 32bd 8cc0 90bd 606c 8a3b 0c62 7f3d
00000030: 6c84 4e3d 6646 aa3d a036 9dbb 7699 37bd
00000040: 6443 a4bc 3eac a43d d091 7ebd 5054 933b
00000050: f4d4 9b3c 1c71 5c3d 3034 b83d 3416 b83d
00000060: fc5f b8bc beb0 8a3d 941c 593d 310c 26bd
00000070: ccdf ad3d ec62 e7bc 80e4 e13c e055 f73b
00000080: 7e9d 12bd f8f5 8f3d 3015 39bc 80da e83b
00000090: cce9 203d d68e 84bd eaf0 8a3d 883b bfbc
000000a0: 70af aa3b b832 0e3d 4844 f33c c6dd c53d
000000b0: 1869 1a3d 8288 95bd 8008 8c3d 866b 9a3d
000000c0: 9891 6a3d 7ac8 be3d 187b 423c 366d a3bd
000000d0: 9a7a c63d c019 eb3c a070 093b 42f2 04bd
000000e0: 86ae 1dbd 3cc6 143d 088d 043d 68a2 8d3d
000000f0: 51bc a2bd b26e b73d d686 ba3d 5ddb 26bd
00000100: 4f25 23bd c883 783d 20b9 253d 3094 cb3c
00000110: 009c 9f3d e0ca 6b3c 1498 d2bc 3c83 38bd
00000120: 4091 833a a6cc 8bbd 98b5 1f3c 823a 8abd
00000130: 0afa 9c3d f0ac f73c 108d d93c c8c6 97bd
00000140: d21c a43d c67a 8f3d a82d dc3c 48a3 d43c
00000150: 38fa 963d 0070 5739 6b07 74bd 8046 36bd
00000160: b980 25bd e0da d0bc 184e 22bc 1e21 01bd
00000170: 7051 cb3c e606 b03d 2091 1fbc 7c98 cb3d
-0.06930233 -0.012265675 -0.028857298 -0.05635331 0.029645652 -0.05473955 0.02796334 -0.100568876
-0.043611974 -0.070679754 0.004224345 0.062349364 0.050419256 0.08314209 -0.0047977716 -0.044824086
-0.020051666 0.08040665 -0.062150776 0.004496135 0.019022442 0.053818807 0.08994329 0.0898861
-0.022506706 0.06771992 0.05300577 -0.04053897 0.084899515 -0.028245412 0.027574778 0.007548079
-0.035794728 0.07029337 -0.011296555 0.0071061254 0.039285466 -0.06472556 0.06784232 -0.023343816
0.005208902 0.034716338 0.029695645 0.096614406 0.03769788 -0.073014274 0.06837559 0.0754004
0.057267755 0.093155816 0.011870168 -0.07979815 0.09691353 0.028698802 0.002097167 -0.032457598
-0.038496517 0.036321864 0.03236106 0.06915742 -0.07946075 0.0895666 0.09107749 -0.040736545
-0.039830502 0.06067255 0.040459752 0.024850935 0.077934265 0.014391631 -0.025707282 -0.04504703
0.0010037795 -0.06826143 0.009747885 -0.06749441 0.07664879 0.03023383 0.026556522 -0.074109614
0.080133095 0.07005839 0.02687724 0.025956765 0.07371944 0.00020545721 -0.059577387 -0.044500828
-0.040405963 -0.025494993 -0.009906314 -0.031525724 0.024819106 0.08595066 -0.00973919 0.099411935
