checkpoints/test_DLinear_custom_ftM_sl96_ll48_pl48_dm512_nh8_el2_dl1_df2048_fc1_ebtimeF_dtTrue_test_0/checkpoint.pth (torch, 57943 bytes, 6 tensors)

Linear_Seasonal.weight f4 [48, 96]
0.03389579 0.03203504 0.023457943 -0.0012640491 -0.022930073 -0.018770047 -0.015637588 -0.013540331
-0.011241442 -0.008430333 -0.0051440583 -0.0025250968 -0.0013461749 -0.0011001414 -0.0022815568 -0.004927467
-0.007927677 -0.0109529365 -0.014418746 -0.017252728 0.004851145 0.0196358 0.026811585 0.031377535
0.03348811 0.03265226 0.029490963 0.024171365 0.013164629 -0.011699864 -0.012602385 -0.01037658
-0.007969483 -0.005099732 -0.0020534121 0.00010646905 0.00079051434 0.0008967172 -0.00066360686 -0.0037313376
-0.00714375 -0.010457345 -0.0143035995 -0.017514959 0.0037774285 0.01900277 0.026454723 0.031217545
0.03334155 0.03251612 0.029404137 0.0240671 0.013050849 -0.01239541 -0.013310712 -0.0110406205
-0.008850884 -0.006390302 -0.0039318926 -0.0023669247 -0.0020914897 -0.0022680173 -0.0038296918 -0.0065677576
-0.009526264 -0.012364986 -0.015624824 -0.016557232 0.006638222 0.02159444 0.02856571 0.0329072
0.034970894 0.034502137 0.0320611 0.028006501 0.019235214 -0.00814925 -0.013334744 -0.012724129
-0.011722272 -0.010506076 -0.009446672 -0.008930393 -0.008885883 -0.008872991 -0.009843402 -0.011745406
-0.013612325 -0.0153294215 -0.017075988 -0.019642431 -0.020585403 0.013911989 0.03109544 0.037498295
0.032341577 0.03682921 0.035313245 0.028546263 0.009251961 -0.01811921 -0.018189669 -0.015889863
-0.013841776 -0.011553447 -0.0084196525 -0.0045614825 -0.0015870179 -0.0006323233 -0.0002679 -0.0017202089
-0.0050256453 -0.00871074 -0.012297372 -0.016641745 -0.020882739 -5.5627093e-05 0.017196743 0.026424414
0.03215103 0.03479703 0.034144428 0.030996436 0.025620362 0.014244408 -0.011357134 -0.013412804
-0.011318309 -0.0088334065 -0.0056899474 -0.0020409175 0.00041900744 0.001402181 0.0015934969 -0.00017314924
-0.0038434586 -0.007867205 -0.011715957 -0.01620994 -0.02066573 -0.0007414644 0.016727295 0.026235318
0.032001093 0.034641653 0.033999626 0.030837053 0.025462816 0.014207425 -0.011886464 -0.014004723
-0.011938294 -0.009706525 -0.007032495 -0.004040071 -0.002183098 -0.0016663462 -0.0018309136 -0.0035725804
-0.00687453 -0.010348517 -0.013763915 -0.017743522 -0.020550787 0.0017295514 0.019437263 0.02831253
0.03368753 0.0363016 0.035917457 0.03350838 0.029412862 0.020725181 -0.0074932054 -0.014013573
-0.013404994 -0.012375499 -0.01105558 -0.009552012 -0.008397818 -0.0076256813 -0.007042028 -0.007934042
-0.010141867 -0.012457561 -0.014460523 -0.016413216 -0.019430557 -0.0057912064 0.025865452 0.035479207
0.026441908 0.037438646 0.039540526 0.03777777 0.03251354 0.019618394 -0.00998597 -0.018395863
-0.016330723 -0.014043534 -0.011202454 -0.0074614785 -0.00327399 -0.000640788 0.00039284906 0.00030887287
-0.0020140323 -0.0060897395 -0.010287659 -0.014318002 -0.018832736 -0.022899486 -0.0035103934 0.017013771
0.028001053 0.033889625 0.036210924 0.035222225 0.031772804 0.025856636 0.013430506 -0.0127325095
-0.015054865 -0.012379012 -0.009281302 -0.0054613664 -0.0015382557 0.0013028685 0.0022895844 0.002050888
-0.00057590805 -0.004975572 -0.009476161 -0.013681314 -0.018410306 -0.022428898 -0.003952793 0.016726237
0.027807849 0.03371478 0.03607813 0.035080496 0.031700086 0.025900364 0.013572864 -0.013175711
-0.015479587 -0.01294346 -0.010208949 -0.0069422894 -0.0037193978 -0.0015572406 -0.0011464083 -0.0016979168
00000000: 50d6 0a3d 2d37 033d df2a c03c 73ae a5ba
00000010: d9d7 bbbc a4c3 99bc 661a 80bc 44d8 5dbc
00000020: 062e 38bc 611f 0abc 7d8f a8bb 187c 25bb
00000030: 2272 b0ba 9f32 90ba 2c86 15bb 9776 a1bb
00000040: 16e3 01bc f273 33bc 9b3c 6cbc 9855 8dbc
00000050: 5bf6 9e3b 42db a03c f8a3 db3c bb85 003d
00000060: d42a 093d 60be 053d 0897 f13c 0703 c63c
00000070: 75b0 573c c9b0 3fbc 3c7a 4ebc 8802 2abc
00000080: 6f92 02bc a71b a7bb 8a92 06bb 2348 df38
00000090: 853a 4f3a ac11 6b3a e7f5 2dba 7589 74bb
000000a0: 1e16 eabb 4955 2bbc a559 6abc 887b 8fbc
000000b0: bc8e 773b b2ab 9b3c 93b7 d83c f0bb ff3c
000000c0: 2691 083d 9f2f 053d f2e0 f03c 5e28 c53c
000000d0: 3ad3 553c 1e16 4bbc 2c15 5abc b8e3 34bc
000000e0: 4c03 11bc bd65 d1bb 1bd7 80bb 681e 1bbb
000000f0: 6011 09bb 04a3 14bb 91fb 7abb 5836 d7bb
00000100: 0c14 1cbc 8396 4abc 43ff 7fbc 08a3 87bc
00000110: 7185 d93b d3e6 b03c a302 ea3c b3c9 063d
00000120: a43d 0f3d 1d52 0d3d 8052 033d e46d e53c
00000130: 2b93 9d3c 6f84 05bc f879 5abc dd78 50bc
00000140: c60e 40bc ad21 2cbc 37c6 1abc c850 12bc
00000150: 1896 11bc 0660 11bc 3846 21bc ce6f 40bc
00000160: 3b06 5fbc 4128 7bbc f1e2 8bbc 2ae9 a0bc
00000170: b8a2 a8bc 1cef 633c ddbb fe3c d097 193d
00000180: 9a78 043d 3ada 163d 9fa4 103d dad9 e93c
00000190: 8995 173c bd6e 94bc 8002 95bc 752b 82bc
000001a0: 9ec8 62bc ab4a 3dbc 95f2 09bc 7d78 95bb
000001b0: 7c03 d0ba 80c2 25ba ee74 8cb9 a278 e1ba
000001c0: 2bae a4bb 7eb7 0ebc eb7a 49bc 4554 88bc
000001d0: 4712 abbc 2351 69b8 2fe0 8c3c 0378 d83c
000001e0: ccb0 033d 5587 0e3d 07db 0b3d 3dec fd3c
000001f0: cbe1 d13c 6161 693c 4613 3abc 61c1 5bbc
00000200: 6e70 39bc feb9 10bc bd72 babb eac0 05bb
00000210: 3aae db39 63c9 b73a e2dc d03a 658f 35b9
00000220: 89e2 7bbb 73e5 00bc 49f4 3fbc b5ca 84bc
00000230: 2d4b a9bc d55e 42ba ae07 893c 73eb d63c
00000240: 9413 033d 68e4 0d3d 3143 0b3d fd9d fc3c
00000250: 6597 d03c 42c6 683c 72bf 42bc 1174 65bc
00000260: d698 43bc 1e08 1fbc d870 e6bb 9262 84bb
00000270: 4f12 0fbb 4d69 daba 44fb efba f421 6abb
00000280: bd43 e1bb d48c 29bc 0b82 61bc dd5a 91bc
00000290: 205a a8bc 1db2 e23a e53a 9f3c aeef e73c
000002a0: effb 093d fdb0 143d 2f1e 133d 1540 093d
000002b0: 3ef3 f03c dbc7 a93c 9089 f5bb 2f99 65bc
000002c0: 9fa0 5bbc 9bc2 4abc 7722 35bc 0b80 1cbc
000002d0: 0097 09bc dae0 f9bb d0c0 e6bb c9fd 01bc
000002e0: 132a 26bc cc1a 4cbc d4eb 6cbc 0275 86bc
000002f0: d52c 9fbc 29c4 bdbb c9e3 d33c a552 113d
00000300: b39c d83c 4459 193d 3ff5 213d ddbc 1a3d
00000310: eb2c 053d c1b6 a03c 329c 23bc ecb2 96bc
00000320: 02c8 85bc da16 66bc 7f8a 37bc 6b7f f4bb
00000330: 7090 56bb 8efa 27ba 4ff7 cd39 37f0 a139
00000340: dbfd 03bb 708c c7bb 928d 28bc 0e96 6abc
00000350: 1c47 9abc b497 bbbc a10e 66bb 7760 8b3c
00000360: 7762 e53c d9cf 0a3d e851 143d 2e45 103d
00000370: 3324 023d 4cd1 d33c a00b 5c3c 049c 50bc
00000380: aea8 76bc 57d1 4abc 9a10 18bc 43f5 b2bb
00000390: 4c9f c9ba 03c5 aa3a da0c 163b 3168 063b
000003a0: 89f8 16ba 200a a3bb e641 1bbc 9727 60bc
000003b0: 36d1 96bc cfbc b7bc 6e86 81bb 7605 893c
000003c0: 49cd e33c 8218 0a3d a9c6 133d 91b0 0f3d
000003d0: f3d7 013d 002d d43c b860 5e3c f0de 57bc
000003e0: 189e 7dbc ce10 54bc 7043 27bc 257c e3bb
000003f0: 24c1 73bb 531c ccba 1443 96ba a28c deba

Linear_Seasonal.bias f4 [48]
-0.002751421 0.01700639 0.028870467 0.025775785 -0.069381125 0.07162754 0.07248702 0.07757699
0.07381317 0.01112847 -0.007489614 -0.06943204 0.054677486 -0.025818836 0.06991555 0.052335292
-0.050949313 0.020484803 0.012276147 0.053099487 -0.07096192 -0.07157246 -0.002270813 0.04672038
0.08636208 -0.00690421 0.07164128 -0.042760026 -0.0066987225 -0.039589874 -0.0068568597 -0.030671813
-0.04656451 -0.05473176 0.01677013 0.0072777052 0.048559427 -0.040835436 0.0026692965 0.03709497
0.062106106 -0.06793847 0.068734154 0.060734507 0.044196356 0.022970175 0.026218263 0.09312535
00000000: 2f51 34bb fc50 8b3c c281 ec3c bd27 d33c
00000010: b117 8ebd 76b1 923d 1374 943d afe0 9e3d
00000020: 5c2b 973d 3054 363c 706b f5bb 6332 8ebd
00000030: 80f5 5f3d 0682 d3bc e22f 8f3d 885d 563d
00000040: 3ab0 50bd bfcf a73c e421 493c d97e 593d
00000050: 7c54 91bd 9594 92bd ecd1 14bb df5d 3f3d
00000060: 9ade b03d b63c e2bb aab8 923d 2325 2fbd
00000070: f580 dbbb fe28 22bd 82af e0bb 7443 fbbc
00000080: 6dba 3ebd 692e 60bd 8361 893c d179 ee3b
00000090: 40e6 463d 0f43 27bd 5def 2e3b e5f0 173d
000000a0: f962 7e3d 5323 8bbd 7ec4 8c3d bfc4 783d
000000b0: 3d07 353d f32b bc3c afc7 d63c 81b8 be3d

Linear_Trend.weight f4 [48, 96]
0.032475807 0.032553032 0.032552518 0.032295942 0.031446878 0.029341483 0.024908196 0.01760019
0.009258253 0.0026171023 -0.0012993019 -0.00283872 -0.0031536673 -0.0041275797 -0.00599958 -0.007559984
-0.008445227 -0.008845742 -0.008930242 -0.009000417 -0.008638953 -0.00807961 -0.0074199373 -0.0068121073
-0.0063663595 -0.006049412 -0.0059036906 -0.005928654 -0.0059978003 -0.005981591 -0.005827962 -0.0054781083
-0.004655334 -0.003525529 -0.0015970847 0.00081697945 0.0023893965 0.0017258567 -0.00020601347 -0.0020247134
-0.0032310674 -0.0039930656 -0.00446202 -0.0047073094 -0.0048942957 -0.0046744696 -0.0043723052 -0.004177553
-0.0042054746 -0.0043699234 -0.004706598 -0.005144355 -0.005452575 -0.0054282374 -0.004750001 -0.003642823
-0.0017621727 0.0011193242 0.0050978633 0.009492413 0.012771707 0.013702325 0.0132110715 0.012458073
0.011976551 0.01171833 0.011692302 0.011974974 0.012630507 0.013608484 0.014703107 0.015593965
0.016235769 0.01678689 0.017211434 0.017637488 0.018472314 0.019973872 0.02221223 0.02499656
0.028039044 0.031071452 0.034007043 0.036619704 0.03812969 0.039116047 0.040110506 0.041213594
0.04211687 0.04258691 0.04262334 0.0423896 0.04202733 0.041628614 0.04123717 0.040876836
0.030918377 0.031005727 0.031095518 0.031070653 0.03067225 0.029444216 0.026548024 0.020841366
0.012665482 0.004808094 -0.00067977613 -0.0034011456 -0.003683744 -0.0025926153 -0.0035685268 -0.0055409614
-0.0074025583 -0.008376452 -0.008856927 -0.009048442 -0.008958778 -0.008592519 -0.007996081 -0.0072716987
-0.0066411975 -0.0061962367 -0.0058490913 -0.0057174745 -0.005812979 -0.0059490404 -0.0060036974 -0.005887076
-0.0055698394 -0.0049329074 -0.0037207678 -0.0013546316 0.0014382822 0.0032615615 0.0025767183 0.00029313294
-0.0016881663 -0.00305583 -0.003958448 -0.004555953 -0.0048314235 -0.004794673 -0.0045087356 -0.0041054226
-0.0038526542 -0.0038356744 -0.0039535486 -0.0042895703 -0.0047792466 -0.005158579 -0.005221423 -0.004773817
-0.003686194 -0.0017740161 0.0017529805 0.006005828 0.010734633 0.014221024 0.015244729 0.014748536
0.013968474 0.01346146 0.013210049 0.013224086 0.013581698 0.014341973 0.015455308 0.016671207
0.0176817 0.01843881 0.019055646 0.019474378 0.019870374 0.020622576 0.022026744 0.02414397
0.026809387 0.029666187 0.03253411 0.03535583 0.03697532 0.037653632 0.03771485 0.03791118
0.038646124 0.03967803 0.040483873 0.040858354 0.040852476 0.04062255 0.040284563 0.039907817
0.027243748 0.027284535 0.027364923 0.027391216 0.027108453 0.0260385 0.023422217 0.018306278
0.010999996 0.0040495843 -0.0007776887 -0.0033369719 -0.0036038388 -0.0014993432 -0.00045046728 -0.0015377034
-0.003875043 -0.005748587 -0.006931241 -0.007626135 -0.007922095 -0.007869676 -0.007505992 -0.006899713
-0.006202685 -0.0056202654 -0.0051961504 -0.0049259793 -0.004929263 -0.0051484355 -0.0053941133 -0.0055078366
-0.00542008 -0.0050637443 -0.0043241773 -0.0028698943 -0.00041917522 0.0025040559 0.0042528803 0.0034594703
0.0012639546 -0.00086651696 -0.0023797154 -0.003406279 -0.0040150103 -0.004254479 -0.004160246 -0.0038048038
-0.0033698392 -0.003099511 -0.0030624089 -0.003207297 -0.0036266504 -0.004208641 -0.004675777 -0.004760903
-0.004301936 -0.0030833108 -0.0008309294 0.0025855692 0.0074541788 0.012432268 0.015997536 0.017022016
00000000: 5a05 053d 5456 053d ca55 053d c048 043d
00000010: 71ce 003d 8d5d f03c 460c cc3c 462e 903c
00000020: edaf 173c b183 2b3b 564d aaba d209 3abb
00000030: c2ad 4ebb a640 87bb 2098 c4bb beb9 f7bb
00000040: d95d 0abc bbed 10bc 2650 12bc 7c76 13bc
00000050: 658a 0dbc 5760 04bc f222 f3bb 1938 dfbb
00000060: e59c d0bb 253a c6bb bf73 c1bb 2845 c2bb
00000070: 3289 c4bb 3901 c4bb 7df8 bebb b481 b3bb
00000080: c68b 98bb 900c 67bb 4555 d1ba 902a 563a
00000090: 6c97 1c3b 2436 e23a 5205 58b9 0eb1 04bb
000000a0: 51c0 53bb 43d8 82bb 2336 92bb c63f 9abb
000000b0: 5460 a0bb 4b2c 99bb 8e45 8fbb dbe3 88bb
000000c0: 14ce 89bb 9331 8fbb ce39 9abb fa91 a8bb
000000d0: 84ab b2bb 5bdf b1bb e5a5 9bbb 6ebc 6ebb
000000e0: b4f8 e6ba 4ab6 923a fa0b a73b 1186 1b3c
000000f0: 6c40 513c b77f 603c 4073 583c f21c 4c3c
00000100: 4c39 443c 3dfe 3f3c 1291 3f3c ae32 443c
00000110: 30f0 4e3c 1ef6 5e3c 4de5 703c d47d 7f3c
00000120: e000 853c a984 893c fefe 8c3c 7e7c 903c
00000130: 4053 973c 3fa0 a33c 6cf6 b53c 96c5 cc3c
00000140: 23b2 e53c 8f89 fe3c f84a 0b3d 8bfe 153d
00000150: e12d 1c3d 2638 203d ea4a 243d 96cf 283d
00000160: bd82 2c3d 9d6f 2e3d d095 2e3d b8a0 2d3d
00000170: d924 2c3d c482 2a3d 4fe8 283d 786e 273d
00000180: 8948 fd3c b9ff fd3c 07bc fe3c e287 fe3c
00000190: 5f44 fb3c ff34 f13c 3e7b d93c 83bb aa3c
000001a0: e282 4f3c 378d 9d3b 0133 32ba c1e5 5ebb
000001b0: f86a 71bb dee8 29bb f2dd 69bb f490 b5bb
000001c0: 2991 f2bb 633d 09bc a51c 11bc eb3f 14bc
000001d0: d7c7 12bc a3c7 0cbc ff01 03bc 6e47 eebb
000001e0: 679e d9bb cd09 cbbb bca9 bfbb a759 bbbb
000001f0: cd7a bebb 2bf0 c2bb aaba c4bb 5fe8 c0bb
00000200: 3383 b6bb 3aa4 a1bb 20d8 73bb e58d b1ba
00000210: be84 bc3a ecbf 553b 29de 283b a3af 9939
00000220: 7645 ddba 5244 48bb deb5 81bb 1b4a 95bb
00000230: eb50 9ebb a21c 9dbb 04be 93bb c886 86bb
00000240: d07c 7cbb f05f 7bbb c58c 81bb 868f 8cbb
00000250: 3a9b 9cbb 4c09 a9bb 7918 abbb ae6d 9cbb
00000260: 1394 71bb 1a86 e8ba 44c4 e53a 89cc c43b
00000270: 50e0 2f3c 4cff 683c 07c5 793c d8a3 713c
00000280: 07dc 643c 758d 5c3c f66e 583c d6a9 583c
00000290: c585 5e3c 98fa 6a3c 4338 7d3c 0e92 883c
000002a0: 36d9 903c fd0c 973c 961a 9c3c bb88 9f3c
000002b0: 32c7 a23c adf0 a83c 6e71 b43c 93c9 c53c
000002c0: 5c9f db3c 8106 f33c 7d42 053d 46d1 103d
000002d0: 6f73 173d b23a 1a3d e37a 1a3d c148 1b3d
000002e0: 664b 1e3d 6e85 223d 6bd2 253d 175b 273d
000002f0: ed54 273d d563 263d 6d01 253d 6176 233d
00000300: 482e df3c d183 df3c 672c e03c 8b63 e03c
00000310: 8c12 de3c b14e d53c f3df bf3c 0cf7 953c
00000320: 5439 343c 60b2 843b cedd 4bba 19b1 5abb
00000330: 622e 6cbb 9c85 c4ba b22c ecb9 c48c c9ba
00000340: 6ff4 7dbb a55e bcbb 771f e3bb a8e4 f9bb
00000350: adcb 01bc d0ef 00bc d3f4 f5bb fd16 e2bb
00000360: e53f cbbb 342a b8bb 7844 aabb 1c6a a1bb
00000370: a885 a1bb 35b4 a8bb 1ac1 b0bb 157b b4bb
00000380: ed9a b1bb c4ed a5bb d4b1 8dbb d614 3cbb
00000390: bfc4 dbb9 161b 243b bf5b 8b3b 48b8 623b
000003a0: 47ab a53a f826 63ba 00f5 1bbb e13b 5fbb
000003b0: 5990 83bb 2869 8bbb ac52 88bb 045a 79bb
000003c0: 85d8 5cbb 2a21 4bbb b2b2 48bb 8431 52bb
000003d0: 19ad 6dbb a4e8 89bb 4337 99bb 5901 9cbb
000003e0: 41f7 8cbb 5f11 4abb bad2 59ba a772 293b
000003f0: 2f42 f43b b6b0 4b3c 440d 833c c171 8b3c

Linear_Trend.bias f4 [48]
-0.046693206 -0.049713723 -0.0063580866 0.04216569 0.06704441 -0.07826583 -0.08523197 -0.08018085
-0.078480996 -0.002841921 0.00726944 0.07011983 -0.004922618 0.050487515 -0.078674845 -0.065249816
-0.020203328 -0.0018926329 0.054897577 0.055115014 0.038768366 0.044995613 0.053256877 0.019117676
-0.090958744 8.658173e-05 -0.064454414 -0.04822578 0.013243805 0.037539773 -0.0061968155 -0.042123623
0.016189907 0.07125613 0.028370555 -0.00090962305 -0.030480443 -0.05644539 -0.04178666 0.044080935
-0.081545934 0.059388515 -0.07960626 -0.05129076 0.041159146 -0.00026104058 -0.048842747 -0.092977665
00000000: 6041 3fbd 9ea0 4bbd 7f57 d0bb eeb5 2c3d
00000010: 944e 893d d649 a0bd 198e aebd dc35 a4bd
00000020: a5ba a0bd 863f 3abb 7c34 ee3b fc9a 8f3d
00000030: ea4d a1bb ffcb 4e3d 4720 a1bd b2a1 85bd
00000040: 7381 a5bc 3912 f8ba 48dc 603d 48c0 613d
00000050: 94cb 1e3d 524d 383d e223 5a3d ac9c 9c3c
00000060: 9448 babd 3693 b538 ad00 84bd 6588 45bd
00000070: 8bfc 583c 4ec3 193d a80e cbbb d289 2cbd
00000080: b2a0 843c bcee 913d 5e69 e83c c573 6eba
00000090: 1fb2 f9bc 4833 67bd 7d28 2bbd 368e 343d
000000a0: 8e01 a7bd 5f41 733d 9b08 a3bd 4316 52bd
000000b0: 7e96 283d 46dc 88b9 550f 48bd 136b bebd

Linear_Decoder.weight f4 [48, 96]
0.03418538 -0.050552458 -0.07582513 -0.057667717 0.07112411 0.0661948 -0.03772799 -0.036060683
-0.047662515 0.053357884 0.062815934 -0.08703625 0.092607066 -0.10082422 -0.09656073 -0.066115916
-0.06965539 -0.05806506 -0.028170146 -0.084107034 0.0967924 -0.05931887 0.0008689463 0.0048656613
0.018838346 0.06925012 0.096091166 0.008965775 -0.031716265 -0.058811903 0.038257346 -0.0697657
-0.07802485 -0.029855773 -0.08527244 -0.031173326 -0.06889895 -0.021507502 -0.07270329 -0.039482288
-0.06873663 -0.038777955 -0.040511098 0.053930283 -0.071624264 0.09104401 0.09707132 0.058338687
-0.06946601 0.08269848 0.07700938 0.098015845 -0.04528786 -0.054030057 0.077010006 0.0024479404
-0.04309108 -0.021450438 -0.037530586 -0.088509426 -0.01364015 -0.02059947 -0.08416929 0.0934909
-0.04333221 -0.0071003586 0.0048384964 -0.07942544 0.045689702 0.0198372 -0.05522858 -0.05237713
0.04060638 -0.0013074875 0.03310883 -0.05144501 -0.08923994 -0.08906798 0.08687578 -0.007059753
-0.082736015 -0.066109926 0.045321196 0.0739046 -0.0451472 -0.008855261 0.07431139 -0.047187306
0.03437613 -0.06656988 -0.025530025 0.0051786527 0.062180832 0.0017269701 -0.099504575 0.05690241
-0.021143049 0.014124185 0.06353468 -0.037153095 0.012845047 0.07249093 0.07338631 -0.0112779215
0.03691086 -0.071289904 0.08426802 0.082527965 0.010803558 -0.09996063 0.09128013 0.094405204
-0.016455024 0.01882656 -0.06776096 -0.026455045 0.021874987 0.04283175 0.037208512 0.07462026
-0.010968082 -0.015486643 -0.08623153 -0.08246912 -0.02213049 -0.08830009 0.031736642 0.014952943
-0.06244946 0.0887239 0.09374419 -0.0043653175 0.089556605 0.017008394 0.046396658 -0.0069346353
0.0084863305 -0.10013029 -0.02891408 0.05786568 0.0006190166 0.017241083 0.026054561 0.06658144
-0.05389177 -0.07865794 0.059448853 -0.059652895 -0.049600497 -0.034669794 -0.086875856 0.017450936
-0.031701602 0.021569706 0.011946313 -0.010291368 0.09175126 -0.050295778 -0.017570265 -0.10186458
0.08021507 -0.0057761744 0.06904706 -0.0724089 -0.060573015 0.048417658 0.020457096 0.0879301
0.028655544 0.0032761618 0.046430796 0.010412119 0.028670996 -0.07949115 -0.05617486 0.051638365
0.093925476 -0.033782326 -0.03803131 0.074382454 0.05814953 -0.09675188 0.076432705 0.05485773
-0.030797139 0.010940947 0.06393702 -0.05480845 0.07708302 0.08455405 -0.09956783 -0.04737346
0.050545275 0.050396487 -0.022677086 -0.013516031 -0.050149277 0.06825861 0.001872465 0.08113383
-0.019151092 0.0035706982 0.0075064674 -0.094805315 0.08978145 0.045082465 0.03277023 -0.032895707
0.07758382 -0.07858775 0.03602311 0.02033145 -0.0936855 -0.018555567 -0.08692802 -0.0030969083
0.09097023 -0.061886586 -0.10145237 -0.07462205 0.05491008 0.008392535 0.027838469 0.08835614
-0.07188722 -0.0448492 0.0952826 0.091487005 -0.036068253 -0.09182219 -0.10157713 0.023371056
-0.10197754 -0.03584618 -0.06818323 -0.035909742 -0.047970798 0.02608706 0.016794465 -0.03168074
0.085102335 -0.035202876 0.08800325 -0.006406367 -0.10077237 0.0541154 -0.038903795 -0.065446004
0.05543466 -0.09659926 0.015252709 -0.04514962 -0.010115981 0.009472519 -0.05753482 -0.030698143
00000000: f805 0c3d 1810 4fbd 354a 9bbd fc34 6cbd
00000010: 84a9 913d 2491 873d aa88 1abd 5eb4 13bd
00000020: c539 43bd cc8d 5a3d a4a5 803d 1040 b2bd
00000030: c6a8 bd3d ee7c cebd a2c1 c5bd c867 87bd
00000040: 7ca7 8ebd a1d5 6dbd 14c5 e6bc 4f40 acbd
00000050: 183b c63d 58f8 72bd 00ca 633a 2070 9f3b
00000060: e052 9a3c 02d3 8d3d 72cb c43d 30e5 123c
00000070: eae8 01bd c0e4 70bd bcb3 1c3d 52e1 8ebd
00000080: 7ecb 9fbd 1894 f4bc 51a3 aebd 345f ffbc
00000090: e51a 8dbd 8030 b0bc 76e5 94bd 2eb8 21bd
000000a0: cac5 8cbd a2d5 1ebd f7ee 25bd 00e6 5c3d
000000b0: beaf 92bd 4875 ba3d 54cd c63d 8cf4 6e3d
000000c0: 3244 8ebd d25d a93d 18b7 9d3d 88bc c83d
000000d0: c37f 39bd 9f4e 5dbd 6cb7 9d3d a06d 203b
000000e0: 4680 30bd d4b8 afbc acb9 19bd 6e44 b5bd
000000f0: f07a 5fbc 38c0 a8bc f360 acbd 2878 bf3d
00000100: 1e7d 31bd 20aa e8bb 408c 9e3b cea9 a2bd
00000110: 2025 3b3d a081 a23c 5d37 62bd 6789 56bd
00000120: e052 263d 0060 abba 209d 073d 01b8 52bd
00000130: 6ec3 b6bd 4669 b6bd eeeb b13d 8055 e7bb
00000140: 8071 a9bd a464 87bd b8a2 393d 4c5b 973d
00000150: 45ec 38bd a815 11bc 9230 983d 7a47 41bd
00000160: fccd 0c3d ca55 88bd 5824 d1bc b0b1 a93b
00000170: 54b1 7e3d 805b e23a 0ec9 cbbd 8012 693d
00000180: 3034 adbc 2069 673c 781e 823d d82d 18bd
00000190: 0874 523c 2076 943d 904b 963d 08c7 38bc
000001a0: d82f 173d 7100 92bd b694 ac3d 6c04 a93d
000001b0: 6801 313c 29b8 ccbd 14f1 ba3d 8457 c13d
000001c0: b0cc 86bc 283a 9a3c 42c6 8abd 40b8 d8bc
000001d0: 2c33 b33c 5870 2f3d f467 183d 82d2 983d
000001e0: 78b3 33bc b0bb 7dbc 289a b0bd 92e5 a8bd
000001f0: 004b b5bc add6 b4bd 48fe 013d 30fd 743c
00000200: 01cb 7fbd e0b4 b53d f4fc bf3d f00a 8fbb
00000210: 7469 b73d 3055 8b3c 6c0a 3e3d f03b e3bb
00000220: 400a 0b3c 1c11 cdbd 38dd ecbc 9004 6d3d
00000230: 8045 223a 2c3d 8d3c 6070 d53c da5b 883d
00000240: 9ebd 5cbd 6a17 a1bd a480 733d 9856 74bd
00000250: e429 4bbd ea01 0ebd f8eb b1bd 44f5 8e3c
00000260: 8ad9 01bd f4b2 b03c 78ba 433c 209d 28bc
00000270: 16e8 bb3d f202 4ebd 84ef 8fbc 609e d0bd
00000280: cc47 a43d 1046 bdbb 8c68 8d3d 1e4b 94bd
00000290: 691b 78bd 9851 463d a495 a73c b214 b43d
000002a0: 08bf ea3c e0b4 563b 382e 3e3d 9897 2a3c
000002b0: 70df ea3c 42cc a2bd 9c17 66bd c082 533d
000002c0: 005c c03d 565f 0abd b8c6 1bbd d455 983d
000002d0: 342e 6e3d da25 c6bd c088 9c3d 80b2 603d
000002e0: 484a fcbc a841 333c 6af1 823d d37e 60bd
000002f0: b4dd 9d3d ac2a ad3d 38ea cbbd ac0a 42bd
00000300: 9008 4f3d 8c6c 4e3d 4cc5 b9bc 5872 5dbc
00000310: 5469 4dbd 2ccb 8b3d 806d f53a 7e29 a63d
00000320: c0e2 9cbc 6002 6a3b d0f8 f53b 4a29 c2bd
00000330: 56df b73d 64a8 383d 143a 063d a6bd 06bd
00000340: 44e4 9e3d 9df2 a0bd f88c 133d 248e a63c
00000350: 2fde bfbd d801 98bc 5107 b2bd 80f5 4abb
00000360: 9a4e ba3d ca7c 7dbd 43c6 cfbd 72d3 98bd
00000370: 64e9 603d d880 093c 800d e43c 10f4 b43d
00000380: 9b39 93bd cbb3 37bd 8623 c33d 8a5d bb3d
00000390: 4ebc 13bd 460d bcbd ac07 d0bd a874 bf3c
000003a0: 9ad9 d0bd 72d3 12bd a6a3 8bbd 1816 13bd
000003b0: 077d 44bd 88b4 d53c 8c94 893c aac3 01bd
000003c0: 224a ae3d e430 10bd 0c3b b43d 80ec d1bb
000003d0: bf61 cebd 1ca8 5d3d 9659 1fbd 8e08 86bd
000003e0: 740f 633d d5d5 c5bd 80e6 793c cfee 38bd
000003f0: 80bd 25bc a032 1b3c a2a9 6bbd ac7a fbbc

Linear_Decoder.bias f4 [48]
0.0001161173 0.03573361 -0.040292714 -0.03346345 -0.08241671 -0.005687371 0.038668796 -0.053206585
0.07857682 -0.015686661 -0.101440296 0.07270503 0.032059357 -0.04392281 -0.012171604 0.07450871
0.008769259 -0.075717136 -0.07072658 -0.09366147 -0.0445726 0.05565113 -0.031241775 -0.0039010718
-0.06601473 -0.050278574 -0.032090805 -0.028562136 0.019937769 -0.042547774 -0.0035010576 0.05645269
0.051057696 -0.092720486 0.08707793 0.041965127 0.08695991 -0.100448124 0.004837148 -0.061087243
0.09675616 0.04508744 -0.056696314 -0.010054052 0.05384004 -0.088592395 0.038099185 -0.044965416
00000000: 0084 f338 685d 123d f909 25bd f810 09bd
00000010: 18ca a8bd 205d babb 2c63 1e3d 26ef 59bd
00000020: e2ec a03d 5081 80bc eebf cfbd 60e6 943d
00000030: ac50 033d 68e8 33bd 686b 47bc 0698 983d
00000040: f0ac 0f3c 9611 9bbd 19d9 90bd 96d1 bfbd
00000050: c291 36bd 70f2 633d c0ee ffbc 20a9 7fbb
00000060: bb32 87bd e8f0 4dbd a671 03bd 24fb e9bc
00000070: 8854 a33c 9346 2ebd 0072 65bb f03a 673d
00000080: e021 513d 3de4 bdbd ea55 b23d a0e3 2b3d
00000090: 0a18 b23d bfb7 cdbd f080 9e3b 9e36 7abd
000000a0: 1828 c63d 9cad 383d 653a 68bd c0b9 24bc
000000b0: 6087 5c3d ee6f b5bd e40d 1c3d a82d 38bd
