checkpoints/test_DLinear_custom_ftM_sl96_ll48_pl24_dm512_nh8_el2_dl1_df2048_fc1_ebtimeF_dtTrue_test_1/checkpoint.pth (torch, 30039 bytes, 6 tensors)

Linear_Seasonal.weight f4 [24, 96]
000000 d2 a0 12 3d f3 1a 08 3d e7 ec ac 3c d5 82 eb bb
       0.0357979 0.033228826 0.021109058 -0.0071872273
000010 f2 68 d6 bc a9 4d ad bc e5 a3 8c bc 05 ba 6f bc
       -0.026173089 -0.021155195 -0.017167995 -0.014631753
000020 da ed 48 bc ee 9e 17 bc ce 96 b4 bb 1d 67 29 bb
       -0.0122637395 -0.0092542 -0.0055111414 -0.0025848814
000030 c8 95 e0 ba cd 22 83 ba 6b 97 e3 ba ca e9 93 bb
       -0.0017134482 -0.0010004878 -0.0017363852 -0.004513954
000040 1a 2a f6 bb ab f7 2a bc f3 b0 6c bc 9f d7 95 bc
       -0.007512343 -0.010435025 -0.014446485 -0.018291293
000050 ee 86 cf 39 17 82 82 3c 25 d1 cf 3c 35 f1 02 3d
       0.00039582647 0.015931172 0.025368283 0.031968314
000060 2b ee 10 3d ce f1 0b 3d 33 1a f1 3c a3 dd b6 3c
       0.035383385 0.03416615 0.029431438 0.022322481
000070 4b 2d 28 3c 37 42 49 bc 83 9c 54 bc 82 93 26 bc
       0.010264705 -0.012283853 -0.012976768 -0.010167005
000080 a4 bd f8 bb 20 e3 95 bb b3 40 81 ba f1 c2 9c 3a
       -0.0075909663 -0.0045741946 -0.0009861201 0.0011959953
000090 98 98 dc 3a a0 83 0b 3b 4b 18 5e 3a c6 0a 19 bb
       0.0016830144 0.0021288171 0.0008472248 -0.0023352369
0000a0 61 64 c4 bb 41 be 1a bc ea c8 64 bc 7b a3 98 bc
       -0.0059934114 -0.009444774 -0.013963917 -0.018632641
0000b0 ba 1f 26 ba 0d 97 77 3c 01 49 cb 3c 8b da 01 3d
       -0.0006337125 0.015111697 0.024815084 0.03170256
0000c0 88 ef 0f 3d da 5a 0b 3d 6b 77 f0 3c 73 ae b6 3c
       0.035140544 0.03402219 0.029353818 0.02229998
0000d0 90 0c 23 3c 6c ab 58 bc d7 f0 5e bc 5d 9e 35 bc
       0.009951726 -0.013224464 -0.013607225 -0.01108512
0000e0 e2 5a 13 bc 00 28 d6 bb 79 78 80 bb 4b 67 1f bb
       -0.008993836 -0.00653553 -0.0039206115 -0.0024323042
0000f0 4b a6 25 bb 4f be 21 bb 03 c7 6b bb 51 1b cf bb
       -0.002527612 -0.0024680083 -0.0035976775 -0.006320395
000100 9a df 19 bc a4 63 49 bc 0e 34 82 bc 12 6a 9b bc
       -0.00939169 -0.012291823 -0.015893962 -0.018971477
000110 42 5f 44 3b 34 b6 99 3c 11 9f e4 3c 69 57 0c 3d
       0.0029964005 0.018763639 0.02790788 0.03426305
000120 31 c5 19 3d da e9 16 3d 9e 5c 08 3d 00 4d e5 3c
       0.037541572 0.036844112 0.03329145 0.027990818
000130 c3 23 97 3c 58 38 09 bc 35 c1 68 bc a1 45 63 bc
       0.01844967 -0.00837525 -0.01420622 -0.013871581
000140 26 ee 5c bc 00 d7 52 bc 52 f0 47 bc 5c 5e 47 bc
       -0.013484513 -0.012868643 -0.012203293 -0.012168493
000150 05 1a 4c bc a1 f5 46 bc 70 be 4d bc 50 b5 66 bc
       -0.012457375 -0.012143523 -0.012557611 -0.014081314
000160 c1 3d 80 bc 68 4e 8b bc 76 b5 99 bc 44 df b4 bc
       -0.015654447 -0.01700516 -0.018763285 -0.022079118
000170 2c ba c9 bc cd 9d 34 3c f4 c6 04 3d 44 ab 28 3d
       -0.024624906 0.011023951 0.0324163 0.041178957
000180 07 25 09 3d 6e c9 24 3d a8 30 1b 3d 6f 81 e8 3c
       0.033482578 0.04023116 0.0378882 0.028382031
000190 3c 97 b6 3b 7f 02 b8 bc ac 48 af bc bf b6 8f bc
       0.0055722278 -0.022462128 -0.021396957 -0.017543195
0001a0 c7 5e 76 bc 8e b4 4c bc 2b 49 12 bc ea df 91 bb
       -0.015037245 -0.0124942195 -0.008928577 -0.0044517415
0001b0 81 61 d7 ba a4 c3 44 ba 7b 5d 1d 38 a6 f3 a3 ba
       -0.0016432257 -0.00075059594 3.7518777e-05 -0.0012508526
0001c0 23 58 95 bb c5 d4 07 bc 54 1c 49 bc 78 0d 8d bc
       -0.004557626 -0.008290474 -0.01227482 -0.017218336
0001d0 de 5a c1 bc a5 a8 bf bb d4 7f 52 3c 5a 72 cb 3c
       -0.0236029 -0.0058489614 0.012847859 0.0248348
0001e0 42 d1 08 3d 9c d6 18 3d 8c b1 13 3d 4d 0b 00 3d
       0.03340269 0.037314042 0.036057994 0.031260777
0001f0 e4 04 c4 3c 03 44 46 3c 24 1d 4d bc 46 94 6d bc
       0.023928113 0.012101176 -0.012519155 -0.014500683
000200 7e ae 3f bc c8 86 11 bc 11 80 a6 bb 8e 42 80 ba
       -0.011699317 -0.008882232 -0.0050811847 -0.000978546
000210 a2 51 c2 3a bc e0 17 3b c1 18 3a 3b 9a a8 a7 3a
       0.0014825354 0.0023174724 0.0028396102 0.0012791336
000220 7e b7 29 bb e1 2e e1 bb 94 78 37 bc cf 76 88 bc
       -0.0025896723 -0.0068720435 -0.011198182 -0.016658215
000230 a3 b3 c1 bc 8c b8 cd bb f5 42 48 3c 31 96 c8 3c
       -0.023645228 -0.006278103 0.012222995 0.02448568
000240 19 bb 07 3d 67 58 18 3d f0 66 13 3d c3 23 00 3d
       0.033137415 0.037193682 0.03598684 0.031284105
000250 ab 94 c3 3c b2 12 3e 3c 97 d3 5b bc f2 2c 7b bc
       0.023874601 0.011601137 -0.013417146 -0.01533054
000260 31 b5 50 bc 4d 96 28 bc 2c e9 ef bb 83 b8 82 bb
       -0.012738512 -0.010289741 -0.0073214974 -0.0039892807
000270 cc 03 19 bb f7 91 09 bb ea 9f f1 ba 1a b7 5a bb
       -0.002334821 -0.0020991543 -0.0018434499 -0.0033373297
000280 c4 00 de bb 72 31 2b bc e9 95 69 bc 33 51 9c bc
       -0.0067749936 -0.0104488 -0.014256933 -0.019081688
000290 92 30 c8 bc b5 79 4a bb 80 37 82 3c a3 64 e2 3c
       -0.024437223 -0.0030895297 0.015895605 0.027635878
0002a0 0a 19 12 3d 78 ac 21 3d 5d bc 1e 3d 34 03 10 3d
       0.03566841 0.03947112 0.038753856 0.035159305
0002b0 ce f2 f2 3c 7c c9 a7 3c ff e6 fd bb 57 07 80 bc
       0.029656794 0.020481817 -0.007748484 -0.0156285
0002c0 53 f8 77 bc f6 a7 6d bc e2 1f 5c bc 41 cf 47 bc
       -0.015134889 -0.014505377 -0.013435336 -0.012195409
0002d0 0f 1f 3b bc 1a a2 2f bc 07 55 1d bc d2 7a 22 bc
       -0.011420979 -0.0107198 -0.009602792 -0.009916978
0002e0 79 01 42 bc 74 1a 62 bc 80 84 7f bc a3 d8 8f bc
       -0.011841171 -0.013800252 -0.015595555 -0.017559355
0002f0 a1 f9 ae bc 22 1c eb bb a3 34 d8 3c 66 70 1d 3d
       -0.021359267 -0.0071749846 0.026392287 0.03843727
000300 a2 34 cf 3c c8 3d 26 3d 9b ea 31 3d 71 94 27 3d
       0.025293652 0.040586263 0.043436628 0.04091305
000310 d7 cc 08 3d d1 3b 90 3c 42 7b 5c bc f3 12 ad bc
       0.033398475 0.017606648 -0.013457121 -0.0211272
000320 18 05 91 bc 9a 69 75 bc 43 d3 43 bc 69 0a ff bb
       -0.017702624 -0.014978791 -0.011952224 -0.0077832234
000330 f0 c8 5b bb eb 98 18 ba 30 1f af 39 d2 52 df 39
       -0.0033536516 -0.00058211264 0.00033401838 0.0004259558
000340 c8 a7 cf ba de 42 bc bb 29 bc 29 bc 60 92 73 bc
       -0.0015842849 -0.005745276 -0.010359802 -0.0148664415
000350 d2 f1 a7 bc e4 ee e2 bc 7c 8c 15 bc c5 af 58 3c
       -0.020501051 -0.027701803 -0.009127732 0.0132255005
000360 e3 df e0 3c b0 80 12 3d 4c 34 1f 3d 9d 53 18 3d
       0.027450508 0.035767257 0.038868234 0.037189115
000370 b8 ea 02 3d 88 70 c4 3c 0c 4f 30 3c 59 ad 72 bc
       0.031962126 0.02397944 0.010761034 -0.014811837
000380 98 9e 89 bc 36 ac 59 bc 28 47 1d bc dc 71 ac bb
       -0.016799256 -0.013285687 -0.0095994845 -0.0052625965
000390 5e 55 4a ba ca d7 0c 3b bf 21 43 3b 1f 58 46 3b
       -0.0007718409 0.0021490925 0.0029774753 0.0030264927
0003a0 21 28 16 3a ba 63 84 bb 5b 26 14 bc bb ea 64 bc
       0.00057280256 -0.0040402086 -0.009042348 -0.01397198
0003b0 96 25 a5 bc 92 7c e3 bc 5d 5d 1b bc 04 c3 51 3c
       -0.020159524 -0.02776936 -0.009482709 0.012802843
0003c0 ee 6f de 3c f5 11 12 3d 77 1c 1f 3d f0 7c 18 3d
       0.027152982 0.035661656 0.038845506 0.037228525
0003d0 77 38 03 3d 38 3b c4 3c aa 07 2a 3c 1e 85 86 bc
       0.03203627 0.023954019 0.010377804 -0.016420897
0003e0 93 b7 90 bc af 6a 69 bc 99 11 37 bc 19 61 f4 bb
       -0.01766566 -0.014246627 -0.011173629 -0.007457864
0003f0 8e d3 7e bb 1c 24 f1 ba 16 42 c7 ba 24 36 f6 ba
       -0.003888342 -0.0018397602 -0.001520219 -0.0018784446

Linear_Seasonal.bias f4 [24]
000000 24 20 53 3c f9 7f a4 3d 32 75 86 3c 4d db 1a 3d
       0.012886081 0.08032221 0.016413305 0.037806798
000010 18 77 bc 3d 8e 4f 90 3d ed 12 7b ba 46 02 c0 3d
       0.09202403 0.07046424 -0.00095777103 0.093754336
000020 75 b4 8a 3d 46 1d 65 3d 4e 74 18 bd 08 cf a2 3d
       0.06772701 0.05593612 -0.03722029 0.07949644
000030 d2 07 12 bc 41 d9 18 bd 2f 00 28 bd 9e af 52 3d
       -0.008912997 -0.037316564 -0.0410158 0.051437013
000040 2d df 25 3d c6 8c 9b 3c 11 0e 09 bc 5e 7f 0e bd
       0.04049604 0.018988024 -0.00836517 -0.034789436
000050 b6 ce 3a bd af 81 85 3b d2 48 4f bd 4e 18 31 3d
       -0.04560729 0.0040742974 -0.050606556 0.04323607

Linear_Trend.weight f4 [24, 96]
000000 69 d5 0a 3d 75 e8 0a 3d 49 9b 0a 3d 82 fa 08 3d
       0.03389493 0.033913095 0.033839498 0.033442028
000010 4c 9c 03 3d 1c 4f f2 3c e5 fc c8 3c cb fd 88 3c
       0.03213148 0.029578738 0.024534652 0.01672258
000020 f2 0a 04 3c b5 db 8b 3a 5d 86 50 bb 72 f2 9e bb
       0.00805925 0.0010670336 -0.0031818368 -0.004850679
000030 1f 00 a8 bb 68 bb c8 bb a8 7d 03 bc 26 bc 1b bc
       -0.0051269676 -0.006125856 -0.008025564 -0.009505307
000040 a1 e2 27 bc 4d 01 2c bc 5f 66 2b bc a8 19 27 bc
       -0.010246904 -0.010498357 -0.010461419 -0.010198988
000050 48 39 1f bc 0b 13 14 bc bc a7 06 bc 39 0d f4 bb
       -0.009718247 -0.009037743 -0.008218702 -0.0074478653
000060 45 50 df bb 34 57 cc bb 8c 5c c0 bb 2d fc bb bb
       -0.006814989 -0.0062359814 -0.0058704074 -0.005736849
000070 7f 94 b9 bb 51 14 b6 bb ef 6f b0 bb 86 36 a7 bb
       -0.005663454 -0.005556621 -0.0053844373 -0.0051029352
000080 26 74 98 bb 96 c5 74 bb ca 8a f8 ba 2b bf 1d 3a
       -0.004652518 -0.0037349216 -0.0018962261 0.0006017561
000090 e4 13 14 3b 92 35 bc 3a 21 db 30 ba e5 a6 25 bb
       0.0022594864 0.0014359227 -0.000674652 -0.002527648
0000a0 d8 0a 70 bb c3 c3 8e bb d2 27 9d bb a3 f3 a4 bb
       -0.0036627557 -0.0043568327 -0.0047960067 -0.0050339266
0000b0 b9 7d a6 bb 7b 93 a2 bb fd 90 9c bb 53 36 9b bb
       -0.0050809053 -0.0049614287 -0.004778026 -0.0047367006
0000c0 41 aa a0 bb 29 26 a9 bb ac 8a b8 bb a7 06 cd bb
       -0.0049031083 -0.0051620197 -0.0056317654 -0.0062568965
0000d0 44 3d de bb 2e 57 e6 bb 70 62 e1 bb 85 89 ca bb
       -0.006782206 -0.0070294356 -0.0068781897 -0.0061809444
0000e0 c0 54 9b bb 1e 29 0f bb 08 bb f2 3a dc ea de 3b
       -0.0047403276 -0.0021844576 0.0018518874 0.0068028998
0000f0 de 3b 30 3c 23 5e 43 3c e9 0a 3b 3c 5b c0 2f 3c
       0.010756461 0.011924299 0.011416175 0.010727013
000100 47 76 2b 3c 03 51 2b 3c 3f b4 2d 3c fd 75 33 3c
       0.010465211 0.010456326 0.010602056 0.010953424
000110 67 dd 3d 3c 7a a4 4c 3c ee 1d 5d 3c 89 42 6a 3c
       0.011588431 0.012490386 0.013495905 0.01429809
000120 17 d1 73 3c 28 ce 7c 3c 4d 2d 82 3c fe 71 86 3c
       0.014881394 0.015430011 0.015890742 0.016411778
000130 63 c7 8e 3c 0f 80 9d 3c c6 5a b3 3c cf 44 ce 3c
       0.01742906 0.019226102 0.02189387 0.025179295
000140 78 68 eb 3c d0 60 04 3d db 28 13 3d 0c de 20 3d
       0.028736338 0.03231889 0.035927635 0.03927426
000150 98 ee 28 3d 99 f8 2d 3d c6 08 33 3d 7d a8 38 3d
       0.041243166 0.04247341 0.04370954 0.045082558
000160 8d 41 3d 3d 7d 71 40 3d 8e b6 40 3d 5d a9 3f 3d
       0.046205092 0.04698323 0.047049098 0.046792377
000170 7b 09 3e 3d 07 4c 3c 3d 4d a4 3a 3d 37 23 39 3d
       0.04639576 0.045970943 0.045566846 0.0451996
000180 32 c2 01 3d aa d8 01 3d d8 e8 01 3d e7 4f 01 3d
       0.03167934 0.031700768 0.031716198 0.03157034
000190 4f 87 fd 3c f9 6a ee 3c 38 01 d1 3c e8 f4 9c 3c
       0.03094831 0.029103743 0.025513276 0.01915975
0001a0 d0 53 32 3c fb ab 50 3b 13 b8 15 bb 25 49 a6 bb
       0.01088424 0.003184079 -0.0022845312 -0.0050746375
0001b0 ee 55 ad bb a0 51 82 bb 86 c6 a0 bb 0b 90 e3 bb
       -0.0052897846 -0.0039770156 -0.0049064783 -0.0069446615
0001c0 4e 7f 0d bc 1d 82 1c bc 67 ce 22 bc 64 bd 23 bc
       -0.008636309 -0.009552506 -0.0099369055 -0.009993885
0001d0 d8 b6 20 bc fc 90 19 bc 98 26 0e bc 91 47 00 bc
       -0.009809218 -0.009372946 -0.008676194 -0.007829563
0001e0 56 78 e7 bb ed d3 d2 bb ca f3 c1 bb 9a 3b b9 bb
       -0.0070639057 -0.006433955 -0.0059189545 -0.005652857
0001f0 62 5b b8 bb 1d fb b9 bb b6 49 ba bb 56 6e b6 bb
       -0.005626128 -0.005675687 -0.0056850566 -0.0055673523
000200 95 7a ae bb 8e ad 9f bb f1 db 7c bb 43 56 e8 ba
       -0.0053246715 -0.0048729843 -0.0038583244 -0.0017725903
000210 43 3d 95 3a 39 f2 49 3b c1 c8 17 3b 79 2d a1 38
       0.0011386055 0.0030814542 0.002316043 7.685548e-05
000220 a7 a8 00 bb 20 18 56 bb d4 d9 84 bb d4 c0 94 bb
       -0.0019631775 -0.0032668188 -0.0040542874 -0.0045395885
000230 c6 92 9d bb eb b2 9e bb 61 f5 98 bb 4e 66 90 bb
       -0.0048087565 -0.004843106 -0.0046679233 -0.004406727
000240 88 45 8d bb 76 a1 91 bb 77 6f 9a bb 06 22 ab bb
       -0.0043112673 -0.0044442965 -0.0047129947 -0.005222562
000250 cf 8d c1 bb 42 4f d5 bb c0 46 df bb 6f 13 da bb
       -0.0059067975 -0.0065096924 -0.006813854 -0.0066551487
000260 1f a6 c1 bb 61 94 8f bb 55 f7 d9 ba 27 f6 31 3b
       -0.0059096958 -0.004381702 -0.0016629497 0.0027154775
000270 25 04 05 3c e8 a6 4a 3c e3 f8 5f 3c fc 02 58 3c
       0.008118664 0.012368895 0.013670179 0.013184305
000280 be 9c 4c 3c 77 08 48 3c 5e cd 47 3c d9 b4 4a 3c
       0.012488542 0.012209049 0.012194959 0.012372219
000290 45 99 51 3c de ce 5d 3c 87 53 6f 3c 3e 42 81 3c
       0.01279289 0.0135380905 0.014607317 0.015778657
0002a0 17 21 89 3c 1b c3 8e 3c 2e ca 93 3c 93 9c 97 3c
       0.016739411 0.017427018 0.018040743 0.018507278
0002b0 27 85 9b 3c 3a 18 a3 3c 31 17 b1 3c 08 d2 c5 3c
       0.01898439 0.019909013 0.021617504 0.024148002
0002c0 8d 73 df 3c dd d7 fa 3c 00 86 0b 3d 61 eb 1a 3d
       0.027276779 0.03062051 0.03406334 0.03782213
0002d0 dd 95 23 3d 82 3c 26 3d 2d 51 26 3d 40 27 27 3d
       0.039937843 0.04058505 0.04060476 0.040808916
0002e0 d9 d8 2a 3d 41 03 30 3d fb 0a 35 3d 9c 3a 37 3d
       0.04171071 0.042971853 0.044199925 0.04473363
0002f0 3a a0 37 3d 64 e9 36 3d 80 a6 35 3d 3b 25 34 3d
       0.04483054 0.044656172 0.04434824 0.04398082
000300 f6 5b db 3c ef 6a db 3c 70 b1 db 3c 80 4e db 3c
       0.026777249 0.026784388 0.026818007 0.02677083
000310 79 f0 d7 3c 1e 09 cd 3c c7 6a b2 3c 42 3b 86 3c
       0.026359783 0.025028761 0.021779431 0.016385678
000320 44 70 1a 3c 66 34 43 3b 56 db db ba c9 56 8c bb
       0.00942618 0.002978587 -0.0016773741 -0.0042828065
000330 e5 03 94 bb c7 44 0b bb 3d f5 62 ba 45 db 0a bb
       -0.004517066 -0.0021250711 -0.0008657759 -0.0021187824
000340 0a fd 95 bb a4 48 da bb b6 0b 01 bc 14 b8 0a bc
       -0.0045772837 -0.0066614915 -0.007876327 -0.008466739
000350 25 22 0e bc 20 76 0c bc 46 4c 05 bc 08 39 f3 bb
       -0.008675133 -0.008573085 -0.008135861 -0.00742257
000360 b1 c5 d7 bb ee 77 bf bb 7d 71 ae bb dd c7 a2 bb
       -0.006584846 -0.005843154 -0.0053235875 -0.004967673
000370 ca cb 9f bb e9 1e a5 bb be 70 ac bb f6 21 b0 bb
       -0.0048765885 -0.005039085 -0.0052624634 -0.005375142
000380 d7 0f ae bb 44 42 a6 bb f0 73 93 bb 95 a2 4f bb
       -0.005311947 -0.0050738174 -0.004499905 -0.00316826
000390 a1 25 1d ba 04 6e 2a 3b 77 67 94 3b 4f 36 67 3b
       -0.0005994682 0.0026005516 0.0045289355 0.0035280173
0003a0 a9 1b 81 3a 57 94 b0 ba b8 14 3a bb b3 77 74 bb
       0.0009850162 -0.0013471943 -0.0028393697 -0.0037302792
0003b0 58 f2 8b bb 52 84 94 bb cb b3 93 bb e1 2b 8b bb
       -0.004270833 -0.0045323754 -0.004507517 -0.004247174
0003c0 0c 81 80 bb 2c 92 78 bb 0d 5c 81 bb 91 6c 8c bb
       -0.0039216336 -0.0037928922 -0.003947741 -0.004285403
0003d0 45 1a a0 bb 2d ac b9 bb dd 78 cf bb aa 30 d9 bb
       -0.004885944 -0.005666277 -0.0063315467 -0.0066281157
0003e0 a4 5e d1 bb fe 86 b3 bb ca e4 6e bb 6e d1 ca b9
       -0.006389456 -0.005478739 -0.0036452287 -0.0003868448
0003f0 fb 28 9e 3b 08 24 2d 3c 55 19 73 3c 8f bc 83 3c
       0.0048266626 0.010567673 0.014837583 0.016081123

Linear_Trend.bias f4 [24]
000000 63 65 04 bd 94 e8 9b bd fd f9 23 bc d6 b0 b1 3c
       -0.032323252 -0.0761272 -0.010008332 0.021690767
000010 fb 2b c0 bd 98 3c 96 bd cf 6a 1f 3c 7c 11 c2 bd
       -0.093833886 -0.07335776 0.009730055 -0.09475991
000020 1a c3 80 bd 96 c8 59 bd b9 f3 86 3d 66 90 9c bd
       -0.06287213 -0.05316981 0.06589455 -0.07644729
000030 c5 ef 10 bd fb cc 1c 3c be 75 f2 3c 6c 81 1c bd
       -0.035384912 0.0095703555 0.02959716 -0.038209364
000040 68 ba 49 bd 0d 31 5e bd 85 d7 26 3d 16 76 4b bd
       -0.049250036 -0.054245997 0.04073288 -0.049673162
000050 c5 a2 a8 3c b6 33 37 bc 59 bf 24 3d bf 9f 0f bd
       0.020585427 -0.011181762 0.040221546 -0.035064455

Linear_Decoder.weight f4 [24, 96]
000000 14 6f 71 3d 96 77 22 bd 28 71 10 3c 74 1f 6e 3d
       0.058943823 -0.039664827 0.008816041 0.058135465
000010 70 64 09 3c b8 a8 d6 bc cf b7 c2 bd 4c ce ba bd
       0.008385763 -0.026203498 -0.09507715 -0.09121379
000020 98 96 e3 bc ab 32 cf bd 80 c3 94 bd 20 48 52 3c
       -0.02778177 -0.10117086 -0.07263851 0.012834579
000030 80 30 4d 3c 4a a8 b1 3d 6f 4e a2 bd 80 2c e7 3b
       0.01252377 0.08674677 -0.07925116 0.0070548654
000040 f0 2f 87 3d e8 c9 17 bd 14 53 89 bd 0c 1d 57 bd
       0.0660094 -0.037057787 -0.06705299 -0.052517936
000050 78 c6 21 3d e8 e2 19 3d de 3f 1e bd 0a 2f 0e bd
       0.039495915 0.03756991 -0.038635127 -0.03471283
000060 7b 5c c4 bd a0 23 aa 3c c0 a2 d9 bb 50 98 c4 bc
       -0.09587952 0.02076894 -0.0066417158 -0.02399841
000070 4a ce ca bd 6c fc aa 3d 1a 3d b0 bd 06 fe 67 bd
       -0.09902628 0.08348927 -0.08605404 -0.05663874
000080 30 f4 f6 bc 30 01 81 bd 7c e7 99 bc 20 fd 7c bd
       -0.030145735 -0.062990546 -0.018787138 -0.061764836
000090 6c 7d c5 3d 36 da 86 bd 58 d8 a0 bd 13 5a 3e bd
       0.09643063 -0.06584589 -0.07853764 -0.04647262
0000a0 f4 d8 34 3d 18 2d 54 3d a5 25 ca bd 84 38 bb 3d
       0.044152215 0.051800817 -0.098704614 0.09141639
0000b0 c8 7c b2 bd 7c bd be bc 0e d2 c1 3d 28 27 80 3d
       -0.087152064 -0.023283713 0.09463893 0.062574685
0000c0 0a 8f a5 3d 50 b4 b9 3d 42 3d a6 3d f8 1a c4 bd
       0.08083923 0.09067595 0.08117153 -0.095754564
0000d0 5a 41 93 3d 98 cd 9a 3d f8 aa a2 3d da 85 09 bd
       0.07190199 0.07558745 0.07942766 -0.033574916
0000e0 0d 68 ce bd 0a 7a 94 bd 98 2a b3 bc b6 39 18 bd
       -0.1007844 -0.072498396 -0.021870896 -0.037164412
0000f0 73 c3 6d bd b8 14 2f bc 63 15 43 bd fc 9c 96 3c
       -0.058047723 -0.010686092 -0.047627818 0.018385403
000100 60 84 d2 3b 10 3a c3 bd 6a 8f 96 3d d7 39 a3 bd
       0.0064244717 -0.09532559 0.07351573 -0.079700164
000110 b2 ad d0 bd 48 57 95 bd 17 26 a4 bd ac c6 2f 3d
       -0.1018938 -0.07292038 -0.080150776 0.042914078
000120 00 25 d3 bc 20 ce 4b bb 86 14 bf 3d 1d 2d af bd
       -0.025774479 -0.0031098202 0.093300864 -0.085535266
000130 3d d1 4a bd c0 0e c5 3c fc 12 81 bc 0c 4f c1 bc
       -0.04951595 0.024054885 -0.015756123 -0.023597263
000140 fa e5 d0 bd 50 68 93 bd e4 96 89 bd 2c 85 bb bc
       -0.102001145 -0.071976304 -0.06718233 -0.02289065
000150 d9 b0 77 bd c2 62 b9 3d 58 1c 75 3d 1f db 58 bd
       -0.06047139 0.0905204 0.059841484 -0.052943345
000160 ec b6 a9 3d 18 58 6f 3d 6a 3e 88 3d f4 bc 08 3d
       0.08286843 0.058433622 0.066525295 0.033383325
000170 30 f6 6e 3d 38 4a 62 3c 0b 0e 2a bd 50 b3 65 bc
       0.05834025 0.01381164 -0.0415173 -0.014019802
000180 ee a8 a2 3d 1e e9 bc 3d 9e 4c 9e 3d ec 81 82 3c
       0.07942377 0.09224151 0.07729457 0.015931092
000190 01 a4 a3 bd c0 d4 8b 3c f4 79 cd bd c0 bb 27 3d
       -0.07990266 0.01706922 -0.10033026 0.040950537
0001a0 fa 89 90 bd 78 8a 0e bc 7c 5a 70 3d 77 c0 9f bd
       -0.07057567 -0.008700006 0.058680043 -0.07800382
0001b0 1c 36 55 3d 85 69 a4 bd 18 ce ba 3d a8 19 84 bc
       0.052053556 -0.08027939 0.091213405 -0.016125515
0001c0 f8 72 8b bd 84 bc a4 3d 80 6c 4d 3b a0 64 21 3d
       -0.06809038 0.08043769 0.0031345189 0.039402604
0001d0 60 d4 16 3c 64 11 17 bd c0 4c 75 3c 28 76 11 bc
       0.009205908 -0.03688182 0.014971912 -0.008878268
0001e0 a8 c2 01 3d 94 29 99 3d 67 b4 bf bd 20 8d 97 bd
       0.03167978 0.074786335 -0.09360581 -0.07399964
0001f0 cc 4b 7a 3d 3e ca a4 3d 40 f5 b7 3d a4 0f f8 bc
       0.06110744 0.08046387 0.089823246 -0.030280896
000200 d4 cf 16 3d 18 5a 23 bc be e9 18 bd bf 81 9b bd
       0.036819294 -0.0099702105 -0.03733229 -0.075931065
000210 00 33 ce 3d b2 cb 98 3d 5c 49 16 bd 54 03 29 3d
       0.10068321 0.07460727 -0.036691055 0.04126294
000220 50 34 f7 bb ae 9a a5 bd a0 fd 55 bb b4 1c 8a bd
       -0.007544078 -0.080861434 -0.0032652393 -0.06743756
000230 e1 9b 50 bd e4 44 d1 bc 80 93 59 bc 24 35 ca bc
       -0.050929908 -0.025545545 -0.013279796 -0.024683543
000240 50 fe 19 3d d2 ce 70 bd c8 b2 a4 3d 74 2b af bd
       0.037596047 -0.05879099 0.08041912 -0.0855321
000250 a8 8f 00 3c 38 b8 02 bc 0d 0e 74 bd 58 75 03 3d
       0.00784675 -0.0079784915 -0.059583712 0.03209433
000260 20 ae 98 3b 38 02 18 3d 50 cd c1 3b 68 eb d5 3c
       0.004659429 0.03711149 0.0059143677 0.026113227
000270 74 d1 94 bd a0 ef 2c 3d 80 a9 92 3d 98 63 8a 3d
       -0.072665125 0.04222071 0.07161236 0.06757277
000280 6c 00 46 3d a4 10 24 3d 08 25 f8 3c 88 fb 8b bc
       0.048340246 0.040054932 0.030291095 -0.017087713
000290 70 65 78 3d 38 b8 a3 3d 7d b3 80 bd 40 63 f0 bc
       0.060643613 0.07994121 -0.06284235 -0.029344201
0002a0 79 b4 bd bd 30 25 ea 3b 3d ff bf bd c8 07 a3 3c
       -0.09262938 0.0071455464 -0.09374855 0.019901171
0002b0 c4 e6 b2 3d dc 01 a6 3c d4 55 91 3d 90 c1 cf 3b
       0.08735421 0.020264558 0.070964485 0.006340213
0002c0 ee ed 0d bd 5c ef 85 bd 14 8e 8e 3d dc 20 a7 3d
       -0.034650736 -0.06539795 0.06960693 0.08160564
0002d0 e0 de c2 bc 54 00 81 3c 58 41 7a 3c 80 98 db ba
       -0.023787916 0.015747227 0.015274368 -0.0016753823
0002e0 b7 85 9f bd f1 ff ca bd fc 50 92 bd 72 5d a0 bd
       -0.07789176 -0.09912098 -0.07144353 -0.07830323
0002f0 cc 6d ac bc 08 14 9d 3c 50 ff 31 3d 7c 0c 4c 3d
       -0.021048449 0.01917459 0.043456376 0.049816594
000300 10 9f f6 3b 9c bd a1 bc 50 a5 0e bd 08 b7 25 3c
       0.007526286 -0.019743733 -0.034825623 0.010114439
000310 e9 a0 58 bd 38 a0 ce 3c b8 3f 37 bc a8 94 9a 3d
       -0.05288783 0.025222883 -0.011184625 0.07547885
000320 70 1f 56 bc e0 b3 aa bd 10 1f d4 bb 00 5a 69 3a
       -0.013069019 -0.0833509 -0.0064734295 0.00089016557
000330 c2 79 b0 3d 70 b4 3e 3d 34 d9 cc 3d 1b f9 60 bd
       0.086169735 0.046558797 0.10002366 -0.054925065
000340 5c 1b a9 bc 74 64 69 3d 07 45 b1 bd 14 e6 1e bd
       -0.020642929 0.056980565 -0.08655744 -0.03879364
000350 20 63 38 3d f2 70 be 3d a0 b3 80 bd 90 ff 5f bc
       0.045016408 0.09298886 -0.06284261 -0.013671771
000360 6c 6b b2 3d 9c 16 b7 bc f5 9b 4b bd 31 5e b9 bd
       0.08711895 -0.022349648 -0.04970928 -0.09051169
000370 6c ef 10 3d 58 ee 8b 3d d5 7a 5f bd c8 98 fd 3c
       0.03538458 0.0683257 -0.0545605 0.03095664
000380 6c 1f ce 3d d0 f2 98 bb c4 79 25 3d 64 85 4f 3d
       0.10064587 -0.0046676174 0.040399328 0.05066432
000390 00 ee 0f 39 d0 83 14 3c 30 65 37 3d df 11 83 bd
       0.00013726205 0.00906463 0.044774234 -0.06399893
0003a0 48 01 57 3d 79 f5 92 bd c4 f4 a2 bd c6 5c 2e bd
       0.052491456 -0.071757264 -0.079568416 -0.042568944
0003b0 c4 27 0d 3d 48 b6 37 3d 2c b1 94 bd 5a bf c4 3d
       0.03446175 0.04485157 -0.07260355 0.0960681
0003c0 f9 8e 7c bd 18 25 d1 3c 88 3d d8 bc 20 1d 06 3c
       -0.061659787 0.025530383 -0.026396528 0.008185655
0003d0 63 0e 6e bd 50 d3 83 bc cc b3 48 bd f4 05 84 bc
       -0.05811919 -0.016091973 -0.048999593 -0.01611612
0003e0 5c bc 5d 3d a5 cc 4a bd 68 ad a9 3d b6 a4 bf bd
       0.05413471 -0.04951157 0.08285028 -0.09357588
0003f0 58 14 2a 3d 50 5f 9f 3d 8a 7f a7 3d fc 3e 1a bd
       0.041523308 0.07781851 0.08178623 -0.037657723

Linear_Decoder.bias f4 [24]
000000 48 59 21 bc f8 0c 62 bd 74 7f 3a bd fc 6e 00 3d
       -0.009847946 -0.05518815 -0.045531705 0.031355843
000010 0e 70 85 3d 14 95 ac bd e5 c9 af bd 24 e2 4f 3d
       0.06515513 -0.08426872 -0.0858343 0.050752774
000020 e8 0c d0 3d 80 3e 17 3d e3 94 8c bd bb 44 85 bd
       0.10158712 0.03692484 -0.068643354 -0.0650725
000030 aa 08 b2 bd 1a 3b 93 3d 9c 9e b2 bd 2c 64 a1 bd
       -0.08693059 0.07189007 -0.087216586 -0.078804344
000040 80 75 1d 3d 67 a9 b9 bd 5a 18 81 bd f0 40 c7 bc
       0.038442135 -0.09065514 -0.06303473 -0.024322957
000050 f6 e3 91 3d 4e 40 c0 3d 9b 1a ab bd 20 c3 9f 3c
       0.07123558 0.09387265 -0.08354684 0.019502223
