checkpoints/test_DLinear_custom_ftM_sl96_ll48_pl48_dm512_nh8_el2_dl1_df2048_fc1_ebtimeF_dtTrue_test_1/checkpoint.pth (torch, 57943 bytes, 6 tensors)

Linear_Seasonal.weight f4 [48, 96]
00000000: 39ff 103d 52f1 053d 6b19 ad3c b116 e2bb
00000010: de9a d9bc 9d54 abbc e029 8abc 2c83 6cbc
00000020: 76c6 45bc 9e9e 13bc 3df8 aabb ec13 2ebb
00000030: 2d03 d5ba 4ef4 5eba 7f18 c5ba dcb4 84bb
00000040: 0f3a eabb e929 29bc e114 6dbc cd81 9cbc
00000050: 4bc5 7a3a d218 853c 49be cf3c 1d9d 023d
00000060: 4a98 0f3d 2685 0a3d 7633 f03c 4f57 b73c
00000070: dc37 2f3c abd0 4cbc 1b8b 49bc 24ca 22bc
00000080: 3e2e f6bb cb70 91bb 65e9 94ba bd88 6d3a
00000090: 674b b33a 9666 f03a e99d 393a ec05 1dbb
000000a0: 7268 c3bb d6c8 1cbc d42a 67bc 2ebf 9bbc
000000b0: d794 4639 96dc 7e3c 74c8 cc3c 28f5 013d
000000c0: 3d3e 0f3d 0b4a 0a3d e5db ef3c 3bb5 b63c
000000d0: 4629 273c afc9 6bbc 9955 5fbc 82ed 38bc
000000e0: e6f1 15bc b5ad d8bb a0d2 82bb 5b97 30bb
000000f0: 9c6c 37bb c2e3 28bb 6583 70bb 953b cebb
00000100: fecb 17bc 9645 49bc 4ab7 84bc f1fa a3bc
00000110: f153 5a3b e426 9c3c 6e3c e63c 9c8c 0c3d
00000120: 423d 193d 70f5 153d 782a 083d 4495 e53c
00000130: 148c 993c 9b7e 25bc 3d5d 6cbc d8e3 66bc
00000140: 8027 5fbc 556e 53bc 6fde 46bc 8ceb 48bc
00000150: ee07 4ebc 597e 49bc a34d 4fbc c4cd 66bc
00000160: a1a3 7fbc 0938 8bbc 7c17 99bc af0f b6bc
00000170: 66e7 c4bc dfc1 3e3c b5a2 053d ccab 283d
00000180: c1ca 063d b769 223d 3b75 1a3d 185f e83c
00000190: f281 a53b 9a97 b9bc cabc a6bc c163 8cbc
000001a0: fde8 73bc 4f6a 4abc b191 0dbc 5937 8ebb
000001b0: cb05 a7ba a8fa c9b9 e091 d039 d10f 47ba
000001c0: 718f 89bb f53f 06bc 7333 49bc e99f 8fbc
000001d0: 50a6 bdbc 4ec1 acbb 480c 553c 90f1 ca3c
000001e0: da59 073d 4461 173d 2341 133d 0241 003d
000001f0: e1d7 c63c 3c45 413c 9888 4bbc 20ef 5fbc
00000200: 1762 3bbc d4bf 0ebc c4b6 a7bb 2b86 88ba
00000210: 2779 bc3a 2eb6 133b dfb9 3c3b 8494 ad3a
00000220: 3b8e 25bb 51d0 e5bb 329e 3bbc 611c 8bbc
00000230: 07e4 b7bc 020d b5bb 4c97 4e3c 5582 c93c
00000240: ae15 073d ca4a 173d b819 133d cf39 003d
00000250: cdc3 c53c b594 3b3c f531 68bc fb82 78bc
00000260: 7e5f 53bc ed1a 2bbc 9d7e f1bb eff9 86bb
00000270: 7e4b 1fbb c84b 08bb 443c f1ba 21b0 57bb
00000280: bf34 d9bb 13ad 2abc a0a4 69bc 98dc 9cbc
00000290: 32b6 bdbc d1eb 32bb 5a35 843c cbe3 e23c
000002a0: 959f 113d b7d6 203d 72c5 1e3d 8d8f 103d
000002b0: 5be4 f53c 4e43 a93c a24f 10bc d23e 78bc
000002c0: 758a 77bc e1b7 6ebc 4768 5bbc 6495 48bc
000002d0: d91b 3cbc 8249 33bc 6b94 20bc f17c 24bc
000002e0: ae15 42bc 0a44 63bc 0145 80bc c5c4 90bc
000002f0: a827 a9bc 01e9 e4bb 6595 d93c 489a 1d3d
00000300: de97 c83c 47d8 243d 3709 323d d224 283d
00000310: effa 093d 0baa 903c ddfa 55bc 3f63 a6bc
00000320: 7eb5 91bc 57a3 77bc 2571 3fbc f770 f1bb
00000330: 787e 2bbb 9c8d 4f38 4ac0 773a 9ebf 8c3a
00000340: 37bd 95ba dd8d b6bb f4e7 28bc c822 77bc
00000350: c397 a6bc 1f96 d1bc 4a7f 07bc a081 563c
00000360: 0d8b de3c 1dca 113d ae64 1f3d 1dff 183d
00000370: 50b1 043d 20e1 c83c 8eae 2c3c e556 65bc
00000380: 9df7 83bc d354 56bc f16c 1abc efba a1bb
00000390: 4e51 d9b9 e14f 1e3b a28d 583b 9b71 583b
000003a0: ccb8 4e3a 5d1b 85bb 6268 17bc 13d2 69bc
000003b0: f9fc a3bc eeb6 d0bc 1214 0dbc dcbd 523c
000003c0: 54a5 dd3c 6ca9 113d 4640 1f3d adff 183d
000003d0: c3a9 043d d6cd c73c a161 283c 4e1a 7abc
000003e0: 7d30 90bc 19ad 6cbc e702 36bc ccbe efbb
000003f0: e07b 70bb 3c3a caba 5951 a5ba 19e1 d0ba
0.03539965 0.032700844 0.021130284 -0.0068996777 -0.026563104 -0.02091437 -0.01686567 -0.014435571
-0.012071243 -0.009009985 -0.0052175806 -0.0026562167 -0.0016251557 -0.0008505032 -0.0015037208 -0.0040498804
-0.0071480344 -0.010324934 -0.01447031 -0.019104863 0.0009566142 0.016247187 0.02535929 0.031888116
0.035057344 0.033818386 0.029321413 0.0223805 0.01069447 -0.012500922 -0.012301232 -0.009935889
-0.0075128367 -0.004438495 -0.0011361061 0.0009061208 0.0013679088 0.001834112 0.00070807204 -0.0023959829
-0.0059633786 -0.009569367 -0.014109332 -0.01901206 0.00018938199 0.0155555215 0.024997927 0.03172794
0.034971464 0.03376202 0.029279659 0.022303214 0.010202711 -0.014391347 -0.013631248 -0.011287095
-0.009151911 -0.0066125044 -0.0039923936 -0.0026945684 -0.002798832 -0.002577052 -0.003669941 -0.006293724
-0.009264944 -0.012284657 -0.01620068 -0.02001712 0.0033314193 0.019061513 0.028104987 0.034313783
0.037411936 0.03661102 0.033243626 0.028025277 0.018743552 -0.010100986 -0.014426527 -0.014092408
-0.013620257 -0.012904723 -0.012137993 -0.01226319 -0.012575133 -0.01229819 -0.012652787 -0.014087144
-0.015602977 -0.016994493 -0.018687956 -0.022224275 -0.02403612 0.011642902 0.032625873 0.041179463
0.032908205 0.0396516 0.037709456 0.028365657 0.005050891 -0.022655297 -0.020353694 -0.01713741
-0.014887092 -0.0123544475 -0.008640693 -0.004340094 -0.0012742815 -0.0003852446 0.00039781537 -0.00075936044
-0.0041980078 -0.0081939595 -0.012280333 -0.017532306 -0.023150593 -0.005272067 0.013003416 0.02477339
0.033044674 0.036957994 0.03595079 0.031311996 0.024272861 0.011796292 -0.012422703 -0.013667852
-0.011436961 -0.008712728 -0.005118223 -0.0010415962 0.0014379368 0.0022539007 0.0028797311 0.0013243114
-0.0025261778 -0.0070133586 -0.011451291 -0.016981306 -0.0224476 -0.0055252323 0.012609314 0.02459828
0.03297966 0.03693656 0.0359132 0.03130513 0.024141217 0.011449029 -0.014172067 -0.015167947
-0.012901185 -0.010443431 -0.00736983 -0.00411915 -0.0024306471 -0.0020797122 -0.0018404801 -0.0032911377
-0.0066286023 -0.010417241 -0.014260441 -0.019148156 -0.023158167 -0.0027301202 0.016138721 0.02769651
0.03555258 0.039267268 0.038762517 0.03529315 0.030016115 0.020661976 -0.008808048 -0.015151696
-0.015108694 -0.014570207 -0.013391561 -0.012242649 -0.011481249 -0.010942819 -0.009801011 -0.010039554
-0.011845989 -0.013871202 -0.015657904 -0.017671952 -0.020648792 -0.006985784 0.026560495 0.038477212
0.024486478 0.04024532 0.04346582 0.04105074 0.033686575 0.017659208 -0.013060299 -0.020310996
-0.017786738 -0.015114627 -0.011684691 -0.007368203 -0.002616791 4.948453e-05 0.00094509555 0.0010738259
-0.0011424188 -0.0055711106 -0.010309208 -0.015083976 -0.020336038 -0.025584279 -0.008270094 0.013092428
0.027165914 0.03559314 0.038914375 0.03735267 0.03239566 0.02452141 0.010539664 -0.013997768
-0.016109282 -0.013081747 -0.009425388 -0.0049356143 -0.00041450042 0.0024156498 0.0033043404 0.0033026699
0.0007885813 -0.0040621 -0.009241195 -0.014271277 -0.020018088 -0.025477853 -0.008610742 0.012862649
0.027056374 0.035561964 0.038879655 0.037353206 0.03238846 0.024390142 0.010277183 -0.015265061
-0.017601246 -0.014445567 -0.01110909 -0.007316446 -0.003669493 -0.0015428732 -0.0012612744 -0.0015936225

Linear_Seasonal.bias f4 [48]
00000000: 7e7b 7ebc ece0 3d3c 8a18 733d 2532 163d
00000010: e90f e93b 1ec7 0fbd 5874 033c e021 35bd
00000020: 7d19 61bd 62bc bb3c fa5e 403d 956b 20bd
00000030: 712c 5fbd eaec 89bb 8506 94bb 75c1 79bd
00000040: a221 21bd d09e 83bd d474 eabc 9412 7f3c
00000050: 2bcc 3cbd 43d4 543c addf ffbc bde4 24bc
00000060: 0b5d 3ebd 6c33 193d 9208 28bd 67bc 2ebc
00000070: 3f99 f23c ddff 5cbc 7bd4 a0bb 7a10 98bd
00000080: 4a73 e6bb 2123 e03c 5ecb 38bd 3b55 423d
00000090: 9228 733d 22e8 7ab9 c921 643c 9843 663b
000000a0: 5b98 03bd ee30 2bbd e6b6 ac3c 5fe1 97bd
000000b0: 5c72 8d3d 3ea4 15bd 8dc7 34bc e4ed 63bd
-0.0155323725 0.01158927 0.059349574 0.036668915 0.0071124923 -0.035102002 0.008023344 -0.04422176
-0.05495595 0.022916976 0.046965577 -0.0391651 -0.054485742 -0.0042091506 -0.0045173788 -0.06097551
-0.039338715 -0.064267755 -0.028620161 0.015568394 -0.046093147 0.01299006 -0.031234587 -0.010064301
-0.04647545 0.037402555 -0.0410238 -0.010665036 0.029614089 -0.013488737 -0.004908142 -0.07425018
-0.0070327865 0.0273605 -0.04511582 0.047444563 0.059364863 -0.00023928334 0.013924071 0.0035135504
-0.03212772 -0.04179471 0.021083307 -0.07416033 0.06906578 -0.036533587 -0.011033905 -0.055646792

Linear_Trend.weight f4 [48, 96]
00000000: 3d8b 0a3d 6527 0b3d c5a4 0b3d 484d 0b3d
00000010: 63d5 083d 0d74 013d fddc de3c 4805 983c
00000020: 438d 0b3c 5015 473a 2dd9 74bb 4f2f b2bb
00000030: 2c07 babb d0bb dabb 49b4 0cbc aa7e 24bc
00000040: ef9c 2ebc 7a96 30bc 9d7b 2ebc e66e 29bc
00000050: 05f3 20bc dc35 15bc 8bb2 07bc bd25 f7bb
00000060: 667c e3bb ba7d d2bb e3f9 c7bb 6d2f c5bb
00000070: cc8f c4bb d38f c2bb 0561 bdbb 566f b4bb
00000080: 4afe a3bb 81d0 81bb a84b ffba 8e7c 433a
00000090: b66c 243b a42d cf3a 6872 52ba 28fa 3fbb
000000a0: a3f3 8abb cff8 a4bb 8b57 b6bb 1e3b c1bb
000000b0: 4f0c c4bb bee1 bfbb 5725 b9bb 991b b7bb
000000c0: 1c24 bcbb 8fae c3bb 7565 d1bb 522f e4bb
000000d0: 2ccf f3bb 6efa f9bb c762 f1bb ac76 d4bb
000000e0: 7539 9bbb 18ee e4ba 3cdc 353b 577e 043c
000000f0: db63 473c de05 5a3c 03d0 4f3c 93ab 423c
00000100: afb6 3c3c c880 3b3c 8835 3d3c f3ad 423c
00000110: 3af5 4c3c 3f9e 5b3c 8092 6b3c d40b 783c
00000120: 242f 803c ce12 843c 7d5a 873c a01e 8b3c
00000130: 14c1 923c 0e79 a03c 3187 b43c 9b01 cd3c
00000140: 364d e93c 0177 023d afc9 103d 423a 1e3d
00000150: 1634 263d ba41 2b3d 2564 303d ad13 363d
00000160: 38e5 3a3d 209e 3d3d 5249 3e3d 7ca0 3d3d
00000170: 525f 3c3d 28eb 3a3d d178 393d 7b1a 383d
00000180: 47c0 013d ca64 023d be37 033d 6fc8 033d
00000190: 6c0c 033d a051 fe3c 0c88 e83c a722 b43c
000001a0: 574e 4c3c f29c 603b 35cd 34bb ab81 bebb
000001b0: 705f c5bb 981c 95bb c3c2 b3bb a1d3 f8bb
000001c0: 66be 17bc 0058 25bc 233a 2abc 8043 2abc
000001d0: 027d 26bc 026b 1ebc a55d 12bc d638 04bc
000001e0: c8e5 eebb cfdc dabb 121a cabb 4edd c1bb
000001f0: 216c c2bb dd41 c6bb 1b96 c8bb 9ef6 c6bb
00000200: 7af0 bfbb 6df6 afbb 10ca 8bbb 726d 00bb
00000210: 6ecc a83a 2800 633b 9e4c 273b 0fb6 66b8
00000220: 500e 1fbb 92ea 80bb dfc7 9fbb eb81 b4bb
00000230: 5d0e c0bb 60b1 c1bb ad0e bbbb f1fa b0bb
00000240: 79bc acbb 78f2 afbb e095 b7bb ac85 c7bb
00000250: 5be8 ddbb 0c04 f2bb 1fa2 fbbb b82f f4bb
00000260: b558 d5bb d718 97bb 820f b0ba 673e 703b
00000270: 6f84 1c3c e3dc 643c c0ab 783c d8d2 6d3c
00000280: 9431 5f3c b154 583c 70ab 563c e6c6 583c
00000290: 665f 5f3c 55c6 6b3c 7494 7d3c 7564 883c
000002a0: 5edb 8f3c 6f19 953c 63c8 993c c932 9d3c
000002b0: 41b2 a03c f9d5 a73c 89d9 b43c 9bfb c73c
000002c0: b82e e13c b3c5 fa3c 9edc 0a3d 9ff9 183d
000002d0: 807a 213d 41ff 243d 3544 253d c52b 263d
000002e0: 51c9 293d 9ebe 2e3d d0bd 323d 91d5 343d
000002f0: 084d 353d 7bbb 343d 93a0 333d 083f 323d
00000300: 80c8 dc3c 522e de3c bd36 e03c ba4b e23c
00000310: 1b6e e23c 216f dc3c 84f1 c83c 72e3 9c3c
00000320: f5a3 303c 0e66 453b cada 17bb 440b a9bb
00000330: 991a b0bb 541b 33bb 2f15 a9ba 624e 26bb
00000340: b56c a5bb b7f7 e9bb 5b5e 08bc a27e 11bc
00000350: fe39 14bc 93b5 11bc 03ab 09bc a867 fabb
00000360: d8b1 ddbb d1bb c4bb e411 b3bb 81d0 a6bb
00000370: ae87 a4bb 9b1c acbb 8491 b6bb e6e5 bdbb
00000380: 37d7 bebb 2562 b8bb 49fa a5bb eaaa 6ebb
00000390: 11f1 53ba 787f 363b bf7e a23b aa3e 7b3b
000003a0: 761b 783a bcaf deba 6f4d 61bb d932 95bb
000003b0: ca08 acbb fb13 b7bb d84c b6bb 9db0 acbb
000003c0: 40f0 a0bb 111a 9bbb b484 9fbb 7827 aabb
000003d0: 1461 bebb daa2 d9bb ffdd f1bb 9a1e fdbb
000003e0: 340e f4bb 86f1 cfbb 4b77 86bb 4667 70b9
000003f0: 6ae9 b23b 692a 453c b757 863c 336f 8f3c
0.033824194 0.033973116 0.034092683 0.034009248 0.033406626 0.031604815 0.027204985 0.018557206
0.008517566 0.00075944234 -0.0037360892 -0.0054377685 -0.0056771245 -0.006675221 -0.008587905 -0.010039965
-0.010657533 -0.010778064 -0.010649589 -0.010341382 -0.009823565 -0.009107079 -0.008282314 -0.0075423406
-0.0069423197 -0.006423679 -0.006102787 -0.0060176165 -0.0059985872 -0.0059375553 -0.005779388 -0.0055064363
-0.005004679 -0.003961623 -0.0019477503 0.000745722 0.002508921 0.0015806449 -0.0008027912 -0.0029293392
-0.0042404695 -0.005034543 -0.005564635 -0.00589694 -0.0059829126 -0.005855768 -0.005650203 -0.0055880067
-0.0057416093 -0.0059717367 -0.0063902684 -0.006963649 -0.0074404683 -0.0076287305 -0.0073665115 -0.0064838734
-0.004737074 -0.0017465977 0.0027749678 0.008086762 0.0121698035 0.013307063 0.012683871 0.011881727
0.011518165 0.011444278 0.011548407 0.011882293 0.012509638 0.013404428 0.01437819 0.015139539
0.015647478 0.016122248 0.01652264 0.016982377 0.017914332 0.019588973 0.02203712 0.02502518
0.0284792 0.031851772 0.03534859 0.038629778 0.040577017 0.04181073 0.043064255 0.044452358
0.045628756 0.046293378 0.046456642 0.046295628 0.045989342 0.04563442 0.045281235 0.04494713
0.03167751 0.0318344 0.03203558 0.03217357 0.03199427 0.031044781 0.028385185 0.02198918
0.01246985 0.0034273234 -0.0027588133 -0.0058137975 -0.00602334 -0.004550528 -0.005485864 -0.0075935875
-0.009261703 -0.010091782 -0.010389837 -0.01039207 -0.01016164 -0.009669067 -0.008933459 -0.008070191
-0.0072905757 -0.0066791545 -0.0061676586 -0.005916274 -0.0059333 -0.006050332 -0.0061214096 -0.0060718795
-0.0058575245 -0.0053699524 -0.004266031 -0.0019596484 0.0012878308 0.0034637544 0.0025527845 -5.500583e-05
-0.0024270006 -0.003934213 -0.0048761214 -0.0055086515 -0.0058610872 -0.0059110373 -0.0057085366 -0.0054010083
-0.005271491 -0.0053694807 -0.0056025833 -0.006088933 -0.0067720837 -0.0073857363 -0.0076792384 -0.0074519776
-0.006510819 -0.0046111154 -0.0013432356 0.0036658288 0.009553059 0.013968679 0.015177667 0.014515601
0.01362266 0.013203786 0.013102397 0.013231015 0.013633585 0.014390548 0.0154772885 0.016649464
0.017560657 0.018200604 0.01877231 0.019189255 0.019616248 0.020487772 0.022076385 0.024411967
0.027488098 0.030611848 0.033901803 0.037347432 0.039423466 0.04028249 0.04034825 0.040569086
0.041451756 0.042662255 0.04363805 0.044148985 0.044262916 0.044124108 0.043854307 0.043517143
0.026951075 0.027121697 0.027369851 0.027624 0.027640393 0.02690846 0.024529226 0.019151423
0.010781278 0.0030120644 -0.002317118 -0.0051588137 -0.0053742644 -0.0027329521 -0.001289999 -0.002537631
-0.0050483593 -0.0071401256 -0.008323277 -0.008880289 -0.00904703 -0.008893388 -0.008402589 -0.0076417513
-0.0067655854 -0.006003835 -0.005464779 -0.0050907736 -0.005021057 -0.0052524335 -0.005571546 -0.0057952283
-0.0058239955 -0.005626934 -0.0050652367 -0.003641779 -0.0008084933 0.0027846973 0.004958957 0.0038336911
0.0009464541 -0.0016989629 -0.003437843 -0.0045531807 -0.005250071 -0.0055870987 -0.0055633597 -0.0052700774
-0.0049114525 -0.004733332 -0.0048681144 -0.0051926933 -0.0058099125 -0.006641728 -0.0073812003 -0.0077245953
-0.007447982 -0.0063459305 -0.0041035763 -0.00022926656 0.005459954 0.012034037 0.016399248 0.017509079

Linear_Trend.bias f4 [48]
00000000: e8eb 273c dfbf 0ebc b66c 9c3b 5c93 eebc
00000010: 3bad 173d 981d f5bc 4727 e3bb 4da7 b53c
00000020: 448f 81bc 7dc4 4ebb 8aae a5ba ee1d f73c
00000030: 8116 683d 98cf d93c c04d 483b e9fd 663d
00000040: c61e 143d 98c8 5d3d 9c5a 7b3c af83 84bc
00000050: e80a c73c caa4 fb3c d17e 1e3d 2caf 503d
00000060: e389 c1bc dad5 e63b be66 243d 7bf7 a53c
00000070: 4d65 38bd c854 923b 25d0 2f3c d680 a33d
00000080: dbd1 c53b 6cc2 6cbc eb65 763d 8341 cebc
00000090: 337c 94bd dab1 cb3c a01e e1bc eed0 c2bc
000000a0: 279e ac39 40bd d0bc d876 ff3b c8a8 673d
000000b0: 8887 a3bd 4bd6 33bd 7784 2bbd 00f6 b23c
0.0102491155 -0.008712738 0.0047737015 -0.029123 0.03703044 -0.029921338 -0.0069321725 0.022174502
-0.015815385 -0.0031550222 -0.0012640518 0.030165639 0.056662086 0.026588246 0.003056392 0.05639449
0.03616216 0.05414638 0.015341427 -0.016176073 0.024297193 0.030718226 0.03869516 0.050948307
-0.02362532 0.007044536 0.040137045 0.02025961 -0.045018483 0.004465673 0.010730778 0.07983558
0.0060369796 -0.014450651 0.06015579 -0.025177723 -0.072502516 0.02486508 -0.027480423 -0.023781266
0.0003292423 -0.025480866 0.0077961497 0.056557447 -0.07984835 -0.043905538 -0.041874375 0.021845818

Linear_Decoder.weight f4 [48, 96]
00000000: 8411 403d 4c27 8a3d 2260 0dbd cc20 283d
00000010: bb3d a3bd 407c 813a fc31 433d 5390 93bd
00000020: de44 b0bd 6048 94bb dca6 d0bd 186a 143d
00000030: 53b5 a5bd 48f6 bf3d f01e 3bbc 80de e83a
00000040: 8040 4a3b 220b c3bd 188b 8e3c d082 e03c
00000050: f4ac eabc b23a 6fbd b4a1 c13d 4c2f 8d3c
00000060: b4b2 8ebc 684d b83c 5074 3b3d 3920 cabd
00000070: a764 9dbd 57ad b4bd c043 893b 80f5 b63b
00000080: 4403 bbbd 60b9 2a3c ff24 52bd 7cae 983c
00000090: c2ea c43d fe0b 8ebd 50ab edbc 1061 8a3d
000000a0: 4cc8 493d ce93 cd3d 1a59 bfbd 0c26 1f3d
000000b0: 8076 733d 4886 58bc 531c 36bd 3e5a 92bd
000000c0: cedd 57bd 84c8 8c3c 487b 253d 1882 c93d
000000d0: 1045 7b3d 5c9d 7e3d 248a 13bd 06ee 09bd
000000e0: 1066 263d 2c89 a9bd bc96 a3bd d636 8dbd
000000f0: ac46 debc a05a 613c 9a74 45bd 340c 323d
00000100: f485 cbbc 7c35 213d 10c5 c4bc 19a1 7ebd
00000110: 3071 c23b 163d abbd 3e21 acbd 68d4 be3c
00000120: 0035 1cbc 0cf9 a83c 682f a83d 90d8 b2bb
00000130: 6005 8e3b a459 963d f0e6 40bc 5040 343c
00000140: ea7e 823d 7ef2 c33d 084a 023c 603d 96bb
00000150: 84c4 84bd a319 8bbd 2e87 aabd 9ce3 c63d
00000160: 388b 3a3d 6f78 bfbd 68a4 973c 6002 3e3c
00000170: 949e f7bc 78a6 bcbc 54e0 83bc 9865 09bc
00000180: 9800 aa3d 1896 09bd b0c1 7b3d 285b 8e3d
00000190: 4847 b1bd 0417 babd 38c0 82bd bc31 95bd
000001a0: 5c7f 6e3d 86e7 06bd 18bf 593c 4097 183d
000001b0: 12d7 a4bd 2c52 cdbd f15d c2bd 99cc 4dbd
000001c0: e07d 9b3c 6c91 0b3d 6238 a63d 5c21 593d
000001d0: 5c26 98bc a00e 383d 843d 53bd 368b c7bd
000001e0: 707a c43c a083 c5bd f7d3 a4bd a730 a2bd
000001f0: e2be a8bd f22b 853d 5439 013d 2c30 3bbd
00000200: a56c 9bbd a895 21bc d85e 643c f875 50bc
00000210: 7039 2ebc 5cd3 003d 6057 3e3d 8c2b 91bd
00000220: a720 5ebd bc72 bb3c 5a73 0ebd f0a0 e1bc
00000230: e8c4 57bc fc4b 103d 64c7 b13d 7ae0 b23d
00000240: 14e0 a4bc f0bb cc3c ee5f 863d a20a 8ebd
00000250: 30d9 c33d 540b 893d a069 e5bc 10ca 863b
00000260: 56db 9a3d b84e 1e3c 6c89 b83d a0f0 423b
00000270: b032 f03b 18da 09bc 50e5 9b3b 2aa5 883d
00000280: 289b 8bbd c0df 8ebc b000 993d 7e76 8fbd
00000290: e875 983d 38da 133d fc59 c1bc 8846 adbd
000002a0: 94ae 883d bec7 c33d 4093 b23a dc01 cbbc
000002b0: e072 6a3c 9847 a53c b8d7 c03d 7966 81bd
000002c0: a893 953d 58c7 44bc ac96 a93d 70e6 b03d
000002d0: b75e 48bd 0097 073d 4863 c33c 1a40 8c3d
000002e0: 8045 90ba 6ee7 59bd d45c 593d ee52 b83d
000002f0: a0d7 ca3d e0f2 8e3d 32bc 97bd 3656 ce3d
00000300: d411 8abc 7c3f 433d 7e2c bb3d 0807 b63d
00000310: 1892 0bbd 30b5 eabc 462e a83d 306a ed3c
00000320: 1fe3 c6bd 503d c7bd a02e 973b 0814 bfbc
00000330: 78df 123d d081 903d c00c 493d bc8d c43d
00000340: 36fa c03d 0060 8dba 5844 40bd ca41 b63d
00000350: 8e30 81bd 7c81 5dbd d0f8 99bc e7da b9bd
00000360: e4a7 073d 9067 74bd 6c0f 503d 0033 bab9
00000370: 90cf 1a3c 4177 92bd a893 173c fa1b b13d
00000380: 715e bfbd bcf9 9fbc ec5c b2bc b858 413d
00000390: 10e9 ebbc b4be 303d b11a 35bd 81d4 babd
000003a0: 2639 3dbd 2838 1f3d f8db 6d3c ea02 4bbd
000003b0: 00fb e1bb a4c5 6e3d d890 b33d 8c3e 853c
000003c0: bfbb bfbd b4b8 233d 70ed 763c c0d1 38bb
000003d0: 341e adbd 46d4 21bd e458 0cbd 0876 e7bc
000003e0: 9c69 c83d 0065 753a e414 313d 8624 bbbd
000003f0: 60aa 0fbc 58d3 fa3c a0ec c1bb e861 103d
0.046891704 0.067457765 -0.034515508 0.041046903 -0.079707585 0.0009878948 0.04765509 -0.07205262
-0.086068854 -0.0045252293 -0.10188076 0.03623399 -0.080912255 0.09373146 -0.01142095 0.0017766505
0.00308612 -0.09523608 0.01740031 0.027406126 -0.028646924 -0.058405586 0.094546705 0.017234467
-0.017419197 0.022497848 0.04576522 -0.09869427 -0.076852135 -0.088221245 0.0041889846 0.005583465
-0.09131482 0.010420173 -0.051304813 0.018637888 0.09615089 -0.06935881 -0.029012352 0.067567945
0.049263284 0.10037957 -0.09343167 0.038854644 0.059439182 -0.013215609 -0.044460606 -0.071461186
-0.052701764 0.017185457 0.040400773 0.098392665 0.06134516 0.06216179 -0.036020413 -0.033674262
0.040624678 -0.082781166 -0.07987735 -0.06895225 -0.027133308 0.013754517 -0.048206903 0.04346867
-0.024844147 0.039357647 -0.024019748 -0.062165353 0.005933903 -0.083612606 -0.08404778 0.023294643
-0.009534121 0.020626567 0.08212167 -0.005457945 0.004334137 0.07341316 -0.01177381 0.011001661
0.06371863 0.09567736 0.007952221 -0.004584953 -0.06482795 -0.06791999 -0.08326565 0.09711382
0.045542926 -0.09349143 0.018511012 0.011597246 -0.030226983 -0.023028597 -0.016098179 -0.008386038
0.083008945 -0.033590406 0.06146401 0.069509804 -0.08656174 -0.09086421 -0.06384319 -0.07284877
0.058226928 -0.03293564 0.013290189 0.03725362 -0.08048834 -0.10025439 -0.09490574 -0.050243948
0.01898092 0.034074232 0.08116223 0.05301033 -0.018572979 0.044935822 -0.051572338 -0.09743349
0.023984164 -0.09644246 -0.080482416 -0.07919436 -0.08239533 0.065025225 0.031548813 -0.045700237
-0.07589082 -0.009862341 0.013938628 -0.012723438 -0.010633811 0.031451568 0.046470046 -0.07088384
-0.05423036 0.022881858 -0.034777977 -0.027542561 -0.013169505 0.035228714 0.08680609 0.08734222
-0.02012638 0.02499196 0.06561266 -0.06935622 0.095629096 0.06691614 -0.028004467 0.004113443
0.07561366 0.009662323 0.09010586 0.0029745474 0.007330261 -0.008413814 0.004757561 0.066721275
-0.06816703 -0.017440677 0.07470834 -0.070050225 0.07444364 0.03609678 -0.023602478 -0.084607184
0.06673923 0.09559582 0.0013624206 -0.02478116 0.014309615 0.02017574 0.09416145 -0.06318373
0.07303554 -0.012010418 0.082806915 0.086377025 -0.048918452 0.03310299 0.023851052 0.06848164
-0.0011007041 -0.053199224 0.053067043 0.090001926 0.099044085 0.069799185 -0.07408942 0.10075037
-0.016854204 0.047667965 0.091393456 0.0888806 -0.034074873 -0.02865085 0.08211951 0.028981298
-0.09711289 -0.09728491 0.0046137124 -0.023324981 0.035857648 0.0705601 0.049084425 0.09597346
0.09422724 -0.0010786057 -0.046940178 0.08899267 -0.06308089 -0.054078564 -0.0187954 -0.090749554
0.033119097 -0.059669077 0.050795957 -0.00035514683 0.009448901 -0.07151652 0.009251513 0.08647914
-0.09344185 -0.019528262 -0.021772824 0.04720375 -0.028797656 0.04315062 -0.044214908 -0.09122563
-0.04619708 0.038871914 0.014517777 -0.049563326 -0.0068963766 0.058293954 0.08767861 0.016265176
-0.093619816 0.03997107 0.015071258 -0.0028201193 -0.084530264 -0.03950908 -0.03426446 -0.028254524
0.097857684 0.00093610585 0.043232813 -0.09137826 -0.008768648 0.030618355 -0.0059181005 0.03524962

Linear_Decoder.bias f4 [48]
00000000: 4809 03bd 9097 8bbd 1095 3d3d 4691 bc3d
00000010: 4b48 a6bd 7503 69bd 7a46 b1bd dc61 0ebd
00000020: 5c58 bd3d 3015 b2bb 0315 36bd e297 44bd
00000030: 2817 8c3c 84de b6bc f001 63bc c04a c93b
00000040: 5836 babd 601b 473c e4ac 633d 4206 b8bd
00000050: a011 cd3c f886 b0bc f8fa cf3d da40 b33d
00000060: 7af8 cf3d 90dd 813d 396a 7bbd 9617 a8bd
00000070: b87a d03c 745e 243d 3895 55bc 40be 173c
00000080: e8a6 833d 24d9 7a3d b846 753c 1826 85bd
00000090: 588a eebc 60ef 9fbc ce56 983d e2bd a1bd
000000a0: b019 e03c 2c28 103d a812 cabd f0e7 833d
000000b0: a0c4 09bb b26e 8bbd e892 c43d 78db a2bc
-0.031991273 -0.06816018 0.046284735 0.09207396 -0.081192575 -0.056888063 -0.086560205 -0.034761295
0.09245369 -0.0054346547 -0.044453632 -0.04799641 0.017100886 -0.0223229 -0.013855442 0.006142944
-0.090923965 0.012152523 0.055584803 -0.089855686 0.025032818 -0.021548733 0.1015529 0.08752604
0.10154815 0.06341088 -0.0613806 -0.08207624 0.025449142 0.04012914 -0.013036065 0.009261668
0.06428319 0.061242238 0.014970474 -0.065014064 -0.029118702 -0.019523323 0.07438432 -0.078975454
0.027355999 0.03519456 -0.0986684 0.06440723 -0.0021021739 -0.06808223 0.09598333 -0.019880041
