checkpoints/test_DLinear_custom_ftM_sl96_ll48_pl96_dm512_nh8_el2_dl1_df2048_fc1_ebtimeF_dtTrue_test_0/checkpoint.pth (torch, 113815 bytes, 6 tensors)

Linear_Seasonal.weight f4 [96, 96]
000000 bf 97 11 3d ea c0 06 3d e5 99 ac 3c 54 b7 d7 bb
       0.035545107 0.03289882 0.021069476 -0.0065831337
000010 a7 be d4 bc f2 24 b0 bc f9 d7 8c bc 6b da 6d bc
       -0.025969816 -0.021501992 -0.017192828 -0.014517407
000020 ca f8 46 bc 0a cf 14 bc 73 67 af bb 77 6f 28 bb
       -0.012144277 -0.009082565 -0.0053529083 -0.0025701204
000030 b6 4b d7 ba a8 e9 6f ba cf 4c d9 ba 16 64 8b bb
       -0.0016425762 -0.0009151944 -0.0016578677 -0.0042538745
000040 6a 30 e9 bb d7 06 29 bc 4e 69 6b bc 7a be 98 bc
       -0.007116367 -0.010316572 -0.014368368 -0.018645514
000050 0e 98 b1 3a 12 71 85 3c c6 89 cf 3c 07 52 02 3d
       0.0013549344 0.016289268 0.02533425 0.03181651
000060 eb 45 0f 3d 59 3a 0a 3d a5 d7 ee 3c cb 14 b7 3c
       0.03497879 0.03374705 0.029155562 0.022348782
000070 ea 88 32 3c bc de 42 bc f7 23 55 bc 3f ad 26 bc
       0.010896901 -0.011893924 -0.013009063 -0.010173141
000080 48 df f8 bb b4 66 93 bb 8b d7 8b ba c2 f4 86 3a
       -0.0075949766 -0.004498327 -0.0010669095 0.0010296332
000090 0c 2f c2 3a d1 e2 f7 3a 31 13 4f 3a 44 7b 17 bb
       0.0014815046 0.0018912201 0.0007899283 -0.0023114244
0000a0 d8 21 be bb 20 34 1b bc bd cb 66 bc 3c 4f 9e bc
       -0.0058023743 -0.009472877 -0.014086661 -0.019324891
0000b0 20 62 92 39 f5 85 7f 3c d0 31 cc 3c 68 67 01 3d
       0.000279204 0.015595903 0.024926096 0.031592757
0000c0 f2 1a 0f 3d ab bc 09 3d ca 67 ee 3c e7 0f b6 3c
       0.034937806 0.033627193 0.029102225 0.02222438
0000d0 e3 08 2b 3c 17 50 5c bc d3 84 63 bc 8c c1 36 bc
       0.0104391305 -0.013446829 -0.013886648 -0.011154544
0000e0 9c e2 13 bc d4 98 d7 bb 08 a6 81 bb df ab 25 bb
       -0.009026196 -0.006579498 -0.00395656 -0.0025279445
0000f0 95 ea 2b bb 40 bc 26 bb 7b e7 71 bb 85 69 d1 bb
       -0.002623235 -0.0025441796 -0.0036911655 -0.0063907527
000100 39 8b 19 bc f2 72 4b bc b5 40 87 bc b8 99 a1 bc
       -0.009371572 -0.012417542 -0.016510347 -0.01972662
000110 9b bf 67 3b 6f 9f 9b 3c 78 23 e5 3c 81 20 0c 3d
       0.0035362008 0.018996922 0.027971014 0.034210686
000120 a9 1f 19 3d a9 df 15 3d cf 82 07 3d 7f 79 e4 3c
       0.03738371 0.036590252 0.033083733 0.027889965
000130 bf d1 9a 3c 66 5c 0b bc c0 e5 6c bc 5c 75 64 bc
       0.018898843 -0.008505916 -0.014459074 -0.013943996
000140 d1 f4 5c bc 01 67 52 bc 3f 4f 46 bc 95 4f 45 bc
       -0.013486103 -0.012841941 -0.012103855 -0.0120429
000150 95 63 4a bc 72 5f 47 bc b8 fc 4c bc 8d b6 65 bc
       -0.012352844 -0.012168752 -0.012511425 -0.014020574
000160 1f 9e 7d bc 76 09 8b bc be 84 9a bc c0 f2 b6 bc
       -0.015479594 -0.016972285 -0.018862125 -0.02233255
000170 9c f2 bf bc 18 25 40 3c 06 99 04 3d b3 33 28 3d
       -0.023431115 0.011727594 0.032372497 0.04106493
000180 5f dc 07 3d fd ce 22 3d 79 c3 19 3d 7f 15 e8 3c
       0.033169147 0.03974818 0.037539933 0.028330563
000190 60 14 d5 3b 80 eb b5 bc b8 4f ae bc 3c 2b 8e bc
       0.006502673 -0.022207022 -0.021278247 -0.0173546
0001a0 18 e5 73 bc bb 83 49 bc 03 68 0e bc c4 85 8a bb
       -0.014886163 -0.012299473 -0.0086917905 -0.004227372
0001b0 f6 cd a4 ba 08 71 c4 b9 c4 f1 6f 39 2e a3 86 ba
       -0.0012573588 -0.00037468248 0.00022882881 -0.001027202
0001c0 2a cd 8d bb 00 34 08 bc 58 77 49 bc 0d 35 8b bc
       -0.004327436 -0.008313179 -0.01229652 -0.01699307
0001d0 5e a9 b0 bc 44 b7 a5 bb 65 f5 53 3c f8 7d cb 3c
       -0.021565136 -0.0050572474 0.012936925 0.02484034
0001e0 1e 67 07 3d c1 18 17 3d ca 7a 12 3d 24 1c 00 3d
       0.033057325 0.03688884 0.035761632 0.031276837
0001f0 cc b0 c7 3c a5 33 57 3c 4c a4 49 bc 1e e4 6b bc
       0.024376296 0.013134872 -0.012307238 -0.014397649
000200 83 46 3d bc e6 1e 0f bc 05 5b a6 bb 5f d4 7b ba
       -0.011552456 -0.008735394 -0.0050767683 -0.0009606536
000210 c6 03 ca 3a 8b 69 18 3b 49 df 3d 3b 4f 49 ad 3a
       0.0015412502 0.0023256268 0.00289722 0.00132207
000220 87 ad 24 bb 21 15 e5 bb d6 2e 3b bc bd 78 89 bc
       -0.0025127844 -0.006991044 -0.011424741 -0.016781205
000230 51 1e b4 bc 99 9a b7 bb 43 e2 4b 3c 92 60 c9 3c
       -0.021987112 -0.0056031463 0.012444082 0.024582181
000240 e0 59 07 3d 0d bb 16 3d 95 5b 12 3d bf 14 00 3d
       0.033044696 0.03679948 0.03573187 0.031269785
000250 63 0f c7 3c 72 34 51 3c 9f 3b 6b bc d6 10 7b bc
       0.02429933 0.012768852 -0.0143574765 -0.015323838
000260 0c 61 4e bc 0f 99 27 bc 3c c7 ec bb 0d 98 7e bb
       -0.01259638 -0.010229363 -0.007225899 -0.0038847954
000270 a6 d4 0d bb 4e bb fc ba 48 72 eb ba 99 60 5d bb
       -0.002164164 -0.0019281895 -0.0017963136 -0.00337795
000280 20 f3 df bb 00 81 2e bc 9a b1 6e bc d8 bf 9c bc
       -0.0068344027 -0.010650873 -0.014568711 -0.019134447
000290 6d ab b8 bc b5 e7 39 bb b8 74 82 3c 3d 21 e3 3c
       -0.02254268 -0.0028366868 0.015924796 0.02772581
0002a0 f9 ba 11 3d 8d 8c 20 3d 55 dd 1d 3d 34 fb 0f 3d
       0.0355787 0.03919654 0.038541157 0.035151675
0002b0 d3 59 f6 3c 00 9f b0 3c d6 e4 08 bc 46 14 80 bc
       0.030072128 0.021560192 -0.00835534 -0.015634667
0002c0 3b af 76 bc 44 95 6c bc 63 4b 59 bc 71 66 43 bc
       -0.015056427 -0.014439885 -0.0132626025 -0.011926279
0002d0 e7 69 35 bc 1d 51 2c bc b7 4f 1b bc f2 46 21 bc
       -0.011072612 -0.010517386 -0.009479455 -0.009843575
0002e0 46 e5 40 bc 5b 06 65 bc bf bb 82 bc 90 f0 92 bc
       -0.011773413 -0.013978566 -0.015958665 -0.017936975
0002f0 f5 52 aa bc 9d 93 d7 bb f8 4f d5 3c 57 57 1d 3d
       -0.02079151 -0.006578876 0.026039109 0.038413372
000300 52 e5 ca 3c 0d a7 24 3d 32 9f 30 3d 57 b3 26 3d
       0.024767552 0.040198375 0.04312057 0.040698376
000310 8a b4 09 3d 87 42 96 3c f0 1b 51 bc 18 24 aa bc
       0.03361944 0.01834227 -0.0127630085 -0.020769164
000320 e9 bf 8f bc af 17 73 bc 6b 75 3f bc 3f 0e f2 bb
       -0.017547565 -0.01483719 -0.0116857095 -0.007386952
000330 41 64 36 bb c4 71 fa b8 cf 7f 30 3a 90 92 47 3a
       -0.0027830752 -0.000119421195 0.0006732912 0.0007613087
000340 63 38 b0 ba 9e 86 bb bb 50 a6 29 bc b1 96 71 bc
       -0.0013444539 -0.0057228347 -0.010354593 -0.0147454
000350 70 7a a5 bc dd cb cd bc 0f f3 11 bc 4c f8 56 3c
       -0.020199984 -0.025121624 -0.008908047 0.013120722
000360 0f d4 de 3c 24 51 11 3d a6 50 1e 3d ad 65 18 3d
       0.027200727 0.035477772 0.03865113 0.03720634
000370 05 56 04 3d 44 35 ca 3c 9b 12 41 3c 42 4e 7b bc
       0.032308597 0.024683602 0.011784221 -0.015338482
000380 20 54 87 bc 27 8d 56 bc 13 9c 1a bc d7 66 a4 bb
       -0.016519606 -0.013095177 -0.009436625 -0.0050171423
000390 61 26 fc b9 a1 b3 19 3b f5 b2 55 3b 21 45 56 3b
       -0.0004809378 0.0023453014 0.0032607887 0.0032695013
0003a0 c1 45 3f 3a 24 c2 85 bb 95 e0 16 bc d8 e1 66 bc
       0.0007296466 -0.0040819813 -0.009208818 -0.014091931
0003b0 bd a3 a3 bc 89 48 d1 bc ad 15 16 bc 63 0a 52 3c
       -0.019975537 -0.025547283 -0.009160441 0.012819859
0003c0 7e a8 de 3c 32 f3 10 3d d8 30 1e 3d 9e 56 18 3d
       0.027179953 0.03538818 0.0386208 0.03719198
0003d0 1c 5b 04 3d ef ae ca 3c 1a eb 3d 3c 48 0a 8b bc
       0.03231345 0.024741618 0.011591697 -0.016972676
0003e0 71 c7 8d bc 44 35 67 bc 12 b4 33 bc 30 6f ec bb
       -0.017307015 -0.014111821 -0.010968225 -0.007215403
0003f0 4f c5 6b bb 91 5a d0 ba cc 88 b0 ba bb bc ea ba
       -0.003597576 -0.0015896132 -0.0013468503 -0.0017909029

Linear_Seasonal.bias f4 [96]
000000 ac 9d 6e bd ea 9b 23 3c f3 a6 df 3c 01 a2 fd bc
       -0.058255836 0.009985903 0.027301287 -0.030961039
000010 e5 8b 10 3d 58 b4 02 3c 02 0d 2c 3c c1 6d 9d bc
       0.035289664 0.007977568 0.010501148 -0.019217374
000020 6b 5d a4 3d 23 f6 b1 3d d9 7e e2 bc 77 77 b5 3c
       0.080256306 0.08689525 -0.027648376 0.022151692
000030 08 bf f0 3b 6c f1 23 bd 29 f8 0e bd 3a 13 1d bc
       0.0073469914 -0.04002516 -0.034904633 -0.0095871035
000040 84 5e 50 3d 52 f1 a3 bd 57 80 0f 3c fe 11 42 bd
       0.050871387 -0.080050126 0.008758626 -0.04738044
000050 77 1e 08 3d 83 3a 47 3d fd b3 29 bd 7a 85 c1 3c
       0.03323218 0.048639785 -0.041431416 0.023623217
000060 63 77 ec 3c cf d5 af 3c 8c f8 3b 3d 81 13 82 3d
       0.028865522 0.021464257 0.04589133 0.06351376
000070 1a 52 f3 3a 3c 7d da bb 5b 86 a8 bd d7 7f 60 bc
       0.0018563897 -0.006667761 -0.08228751 -0.013702354
000080 09 74 5c bd a1 fc ca bc a5 9d 52 bc 5c f5 49 bb
       -0.053821597 -0.024778666 -0.012854968 -0.0030816412
000090 02 3d 39 3d b3 01 53 bd 0a 02 ec bc d4 76 60 3d
       0.045224197 -0.051515292 -0.028809566 0.054800823
0000a0 4c 4c ad 3b ec 5b 97 3d 7c 99 8a bd bf 61 8a bb
       0.0052886363 0.073905796 -0.06767556 -0.004223078
0000b0 d0 cc ae 3c 3a 67 69 3d 82 5d df 3b c4 b7 92 bd
       0.021337897 0.05698321 0.006816567 -0.07163957
0000c0 1a f2 ec bc 5d 80 80 3c 22 c7 56 3d 96 be 81 3d
       -0.028924037 0.015686208 0.052436 0.063351795
0000d0 e2 1d 6d bd 81 ca d9 bc 5c fa 41 bd 5f 51 86 bd
       -0.057889827 -0.02658582 -0.047357902 -0.06558489
0000e0 7c 5c 3d bd 7a b0 99 3d d1 ef 30 3d 0b c0 a3 3d
       -0.046230778 0.07504363 0.043197457 0.07995614
0000f0 73 a7 99 3b f7 b0 e3 bc a7 67 70 3d cc 17 09 bd
       0.004689151 -0.027794344 0.0586926 -0.03346996
000100 48 d8 9b bc 34 f0 80 3d 68 7b f5 bc ce c2 ae bc
       -0.01902403 0.06295815 -0.029966071 -0.021333124
000110 68 53 87 bc 94 9c 8a bd d0 29 fb 3c 7a 9b 23 bd
       -0.016519263 -0.06768146 0.030659586 -0.039943196
000120 ab 2f 0b bd 79 61 20 bd 9b d1 ed 3c 25 43 6b 3d
       -0.033981007 -0.039155457 0.029030612 0.05743708
000130 c7 35 5f 3c 37 00 29 bd 02 a2 15 3d 97 51 a1 3c
       0.013623661 -0.04125997 0.036531456 0.019692225
000140 a8 13 a3 3d 79 34 87 bc f2 46 01 bd 3d 25 3a 3d
       0.079627335 -0.016504513 -0.0315618 0.04544567
000150 4e 94 20 3d b8 8a 04 bc c1 01 b0 3c 65 12 15 bd
       0.039203934 -0.008089714 0.021485211 -0.036394496
000160 cd 1f 9e bd f2 eb a5 3d 17 8b 03 bd 10 2b 69 3a
       -0.07720909 0.081016436 -0.03211507 0.00088946614
000170 2c 9a eb 3c eb bd b5 bd 4c 3e 66 bc 67 f9 42 bd
       0.028760038 -0.088741146 -0.014052939 -0.04760113

Linear_Trend.weight f4 [96, 96]
000000 8b 8f 0b 3d 72 1e 0c 3d 98 7f 0c 3d 7a f6 0b 3d
       0.03407244 0.034208722 0.03430137 0.034170605
000010 70 20 09 3d 47 d2 00 3d 0c e0 d8 3c ba fb 93 3c
       0.0334782 0.031450536 0.026474021 0.018064369
000020 c7 0d 09 3c 34 70 3e 3a 7e d9 76 bb 05 ad b3 bb
       0.008365101 0.00072646444 -0.0037666257 -0.005483272
000030 f7 bf bb bb 7b ab db bb c0 6d 0d bc 71 12 25 bc
       -0.005729671 -0.0067037917 -0.0086321235 -0.010075198
000040 74 fc 2f bc b9 d2 32 bc f0 20 31 bc 94 1b 2c bc
       -0.010741342 -0.010914498 -0.010811076 -0.010504622
000050 27 c1 23 bc c2 12 18 bc 64 74 0a bc 35 e4 fb bb
       -0.009994782 -0.009281816 -0.008450601 -0.0076871165
000060 56 74 e7 bb 13 4d d5 bb 4c f0 c9 bb c1 7a c6 bb
       -0.007063429 -0.006509432 -0.006162679 -0.006057114
000070 5c 20 c5 bb a6 a9 c2 bb e7 80 bc bb 1d 24 b3 bb
       -0.0060158204 -0.005940634 -0.005752671 -0.0054669515
000080 41 64 a3 bb a0 af 82 bb ef a5 04 bb cb 6e 2a 3a
       -0.0049863164 -0.0039882213 -0.0020240506 0.0006501495
000090 2f b4 1e 3b 89 1b cd 3a d3 42 38 ba 44 eb 31 bb
       0.0024216285 0.0015648465 -0.00070290006 -0.0027148286
0000a0 da 54 82 bb e1 19 9c bb 9e 12 ad bb d0 e6 b6 bb
       -0.0039774003 -0.004763827 -0.0052817604 -0.005581714
0000b0 14 be b9 bb e4 2a b7 bb 63 44 b2 bb a5 ea b1 bb
       -0.005668411 -0.0055898298 -0.0054402812 -0.005429583
0000c0 a3 ba b8 bb 69 5b c2 bb 69 4d d2 bb 07 34 e8 bb
       -0.005637483 -0.005931307 -0.0064179194 -0.0070862803
0000d0 6f ed fa bb af 9d 01 bc c8 9d fc bb e9 64 e2 bb
       -0.007657699 -0.00791113 -0.0077092387 -0.006909002
0000e0 68 29 ac bb 0b 39 1a bb f5 4c 0e 3b b3 6f f6 3b
       -0.0052539594 -0.0023532535 0.002171335 0.00752064
0000f0 7c 89 3e 3c 6a 71 51 3c a3 3e 47 3c b1 79 39 3c
       0.0116294585 0.012783388 0.01216093 0.011320517
000100 fe c6 32 3c ce 23 30 3c 8d 74 30 3c 04 20 35 3c
       0.010911701 0.010750724 0.010769975 0.011054996
000110 71 bd 3f 3c 70 f5 4f 3c dd 3e 62 3c 88 f5 70 3c
       0.011702881 0.012692794 0.013808933 0.014706977
000120 fe 82 7b 3c 34 e0 82 3c 7c 3d 87 3c 0e 39 8c 3c
       0.015351055 0.015976049 0.01650881 0.01711705
000130 d5 66 95 3c b1 db a4 3c 73 26 bc 3c 54 ef d5 3c
       0.01823751 0.020124288 0.022967553 0.026115097
000140 8e 46 f1 3c cd 81 06 3d 39 93 14 3d de cf 21 3d
       0.029452588 0.03283863 0.036273215 0.03950488
000150 49 d6 29 3d 66 1c 2f 3d 63 6b 34 3d 10 11 3a 3d
       0.041464124 0.042751692 0.044047724 0.04542643
000160 13 6c 3e 3d 21 60 40 3d 2a 36 40 3d 12 d4 3e 3d
       0.046489786 0.046966676 0.046926655 0.046588965
000170 b7 fd 3c 3d 3c 1e 3b 3d 4f 61 39 3d d7 cd 37 3d
       0.0461404 0.04568313 0.045258816 0.04487404
000180 04 64 02 3d 85 da 02 3d 6e 64 03 3d 7f 8a 03 3d
       0.031833664 0.031946678 0.0320782 0.032114502
000190 f6 2a 02 3d ef 48 fa 3c 57 be e0 3c 93 e9 aa 3c
       0.031779252 0.030552356 0.027434511 0.02086333
0001a0 92 aa 40 3c ab b1 55 3b 61 ba 27 bb 2e 41 b2 bb
       0.011759417 0.003260712 -0.0025593268 -0.005439899
0001b0 e4 1f b9 bb c8 20 8c bb 22 d9 aa bb 68 80 ed bb
       -0.0056495536 -0.0042763688 -0.0052138725 -0.0072479732
0001c0 24 63 12 bc 9a 0a 21 bc f5 ed 26 bc 09 89 27 bc
       -0.00893477 -0.009829188 -0.010188569 -0.010225543
0001d0 ea 59 24 bc 21 50 1d bc da 4f 12 bc db c6 04 bc
       -0.010031203 -0.009601624 -0.008930171 -0.008104051
0001e0 24 1c f1 bb 56 1a de bb 9a 33 ce bb f7 5d c6 bb
       -0.007358091 -0.006778042 -0.0062927725 -0.006053682
0001f0 99 b2 c6 bb b3 83 c9 bb a1 d4 c9 bb a2 4a c6 bb
       -0.006063771 -0.006149733 -0.0061593805 -0.0060513774
000200 12 2e be bb 8b 35 ad bb 9b 6a 88 bb 34 2f fb ba
       -0.005803832 -0.005285924 -0.004163099 -0.0019163848
000210 6d 60 97 3a db e6 50 3b bb cb 1c 3b 27 45 3b 38
       0.0011549123 0.0031875882 0.0023925144 4.4648677e-05
000220 06 26 0c bb b8 2b 6a bb 7f 9f 92 bb 0e f9 a4 bb
       -0.0021384968 -0.0035731625 -0.00447458 -0.0050345724
000230 8d 03 af bb 53 87 b1 bb 6a 6f ac bb a0 f8 a3 bb
       -0.0053409995 -0.005417743 -0.005262305 -0.0050040036
000240 c4 68 a1 bb 1f 1d a6 bb 42 c9 ae bb b4 95 c0 bb
       -0.004925819 -0.0050693895 -0.0053340504 -0.005877221
000250 dd 11 d9 bb 47 51 ee bb 3e 2e f9 bb 0d 91 f4 bb
       -0.006624444 -0.0072728726 -0.0076043895 -0.0074635805
000260 44 78 da bb 69 02 a3 bb c5 03 fb ba 00 d1 3c 3b
       -0.006667169 -0.0049746525 -0.0019150904 0.0028811097
000270 11 62 0d 3c 61 c8 55 3c 1a d5 6a 3c 32 38 61 3c
       0.008629338 0.013048262 0.014333034 0.013746308
000280 43 91 53 3c 7f 76 4c 3c 02 c8 49 3c 64 9b 4a 3c
       0.012913051 0.012479424 0.012315752 0.01236615
000290 ef 93 50 3c 38 c4 5d 3c 5b 82 71 3c 7e ab 83 3c
       0.012730583 0.013535552 0.014740552 0.016072985
0002a0 f7 87 8c 3c 50 06 93 3c 1d c5 98 3c da 20 9d 3c
       0.017154677 0.017947346 0.018648678 0.019180704
0002b0 f2 a5 a1 3c f3 db a9 3c 05 4c b9 3c 7e 1f cd 3c
       0.01973245 0.020734763 0.022619257 0.02503943
0002c0 98 36 e5 3c 73 08 ff 3c 76 dd 0c 3d 92 fe 1a 3d
       0.027980134 0.031131959 0.03439089 0.037840433
0002d0 91 bb 23 3d 78 c7 27 3d 00 cf 28 3d b3 98 2a 3d
       0.0399738 0.040961713 0.041213036 0.04164953
0002e0 eb a7 2e 3d 37 5f 33 3d 7a 8b 36 3d 2a 99 37 3d
       0.042640608 0.043791976 0.04456661 0.044823803
0002f0 56 15 37 3d 43 c1 35 3d e0 19 34 3d 92 55 32 3d
       0.044698082 0.04437376 0.04396999 0.043538637
000300 5f d5 dc 3c ac 90 dd 3c 8e af de 3c d1 94 df 3c
       0.026957212 0.027046524 0.02718332 0.02729264
000310 ed 2b de 3c ad 1d d6 3c 56 7a c0 3c 64 db 92 3c
       0.027120555 0.026137197 0.023495834 0.01792688
000320 ea 65 27 3c 85 2a 43 3b f0 3e 06 bb 18 89 9b bb
       0.010217169 0.0029779982 -0.002048429 -0.0047465675
000330 e9 ac a2 bb 7d 2c 22 bb 59 d8 95 ba b0 2c 18 bb
       -0.00496446 -0.0024745755 -0.0011432274 -0.0023219995
000340 a9 be 9b bb 93 69 df bb 4f 62 03 bc ab ec 0c bc
       -0.004752953 -0.0068180053 -0.008019044 -0.008601348
000350 fd 28 10 bc e0 b3 0e bc 98 10 08 bc 61 31 f9 bb
       -0.008798835 -0.008709878 -0.0083047375 -0.0076047634
000360 86 4b de bb fe 88 c7 bb d0 55 b7 bb 50 34 ac bb
       -0.0067839054 -0.006089329 -0.0055949464 -0.0052552596
000370 8c 1b aa bb 6a a1 b0 bb d8 8d b8 bb 3d 5d bd bb
       -0.005191272 -0.005390336 -0.0056321435 -0.005778937
000380 c4 da bc bb 64 9d b4 bb 93 86 9f bb 6a 2b 60 bb
       -0.0057633836 -0.0055119265 -0.0048683374 -0.0034205564
000390 d7 b1 41 ba ba 56 28 3b b2 fe 95 3b 49 49 6c 3b
       -0.0007388866 0.0025686459 0.004577481 0.0036054424
0003a0 ed 66 85 3a 0d e7 b8 ba ff 38 46 bb 9e 7a 83 bb
       0.0010177769 -0.0014106944 -0.0030246375 -0.00401242
0003b0 09 0b 97 bb b6 89 a1 bb 51 a2 a1 bb c1 1d 99 bb
       -0.00460947 -0.0049297465 -0.0049326797 -0.0046727364
0003c0 f9 9e 8e bb b6 29 8a bb 20 95 8e bb f9 21 9a bb
       -0.004352447 -0.004216398 -0.004351273 -0.004703757
0003d0 a6 b2 af bb 04 3b cb bb ef 08 e3 bb 0e e6 ee bb
       -0.0053618727 -0.0062021036 -0.006928555 -0.0072906082
0003e0 d0 72 e8 bb d4 9d c9 bb 14 d7 87 bb 8e b4 25 ba
       -0.007093765 -0.006152848 -0.0041455124 -0.0006321155
0003f0 e3 f4 98 3b b7 28 2e 3c 0b 29 75 3c f2 84 84 3c
       0.0046678646 0.010629824 0.014963399 0.016176675

Linear_Trend.bias f4 [96]
000000 7c d2 e4 3c 66 ec 60 3c 27 9b ac bb 17 f9 f0 bc
       0.027932398 0.013728237 -0.005267519 -0.02941565
000010 a9 24 60 3d a7 ce 32 bc d2 01 3e 3d 8d 2e 66 bc
       0.05472246 -0.010913528 0.046388455 -0.0140491845
000020 18 fd a0 bd f9 5d a6 bd ee 0b cb 3c ad 55 ae 3c
       -0.07860774 -0.081233926 0.024785962 0.021281088
000030 a2 a5 68 bd 55 33 5a ba 65 38 08 3d 6c ef 46 3c
       -0.056798585 -0.0008323689 0.033256907 0.012142044
000040 82 1d 42 bd 8a ce 93 3d df df f0 bc a6 47 d3 3b
       -0.047391422 0.072171286 -0.029403625 0.00644775
000050 77 54 2f 3d 2a 11 bc 3c da 1f fa 3b 89 10 78 3c
       0.04280516 0.022957403 0.0076331915 0.015140661
000060 35 ba 74 bc 0f e4 d6 bc 49 2f 00 bd a5 d8 0c bd
       -0.014936973 -0.026231794 -0.031295095 -0.034386296
000070 70 d6 73 bc df 9c 3e 3c b1 8b a2 3d 07 a9 15 bd
       -0.014882669 0.011634081 0.079368 -0.03653815
000080 cf ad 2a 3d 4e 98 89 3c 7a eb 1e bc e8 c8 b4 3c
       0.041669663 0.016796257 -0.009699697 0.022068456
000090 46 01 b9 3c 42 bc 3c 3d 4e 0f 04 bc 3a 02 53 bd
       0.022583615 0.046077974 -0.00806029 -0.051515795
0000a0 54 3e 1d bd 24 36 a2 bd 1d f0 6e 3d 66 fb 7b 3b
       -0.03838952 -0.07920483 0.05833446 0.0038449406
0000b0 ba 68 58 bb 01 ed b0 3c 39 ed e3 bb 60 1f 76 3d
       -0.0033021406 0.021597387 -0.0069557694 0.060088515
0000c0 3c 9a d5 3c 28 4d e0 bc 81 57 42 bd b5 94 4b bd
       0.026074521 -0.027380541 -0.04744673 -0.049702365
0000d0 33 69 83 3d 2d 8b 53 ba 8a 42 3f bc b6 70 32 3d
       0.064165495 -0.000806975 -0.011673579 0.04356452
0000e0 7d 7e 26 bc 04 e5 9a bd 60 3c 68 3d 2f 18 aa bd
       -0.010161993 -0.075632125 0.056698203 -0.08305394
0000f0 20 3e ec 3c a9 b1 5a bd e0 7a 98 bc 7f db 40 bd
       0.028838217 -0.053392086 -0.018613279 -0.047084328
000100 fc ed 8c 3c c1 2d 77 bd 9d 18 00 bd f7 c7 61 3d
       0.017203324 -0.06034637 -0.031273473 0.055122342
000110 08 e0 e1 bc f1 8c 8a 3d 6f 48 75 bd a7 31 f3 bc
       -0.027572647 0.06765164 -0.05988353 -0.029686762
000120 3d 63 64 bc 71 4c 80 3d 0e 0b 41 bd 9b 4a 8c bd
       -0.013939676 0.0626458 -0.047129683 -0.06850167
000130 e9 42 4b bd 29 6c 2c 3d bb 97 4c bd 5c cd 12 3d
       -0.049624357 0.042095337 -0.04994939 0.035840377
000140 40 5d 9f bd 15 1a 8f 3c 47 25 fa 3c 04 3c d1 bc
       -0.07781458 0.017468492 0.030535353 -0.025541313
000150 39 07 3a 3d 6e e8 0c bd e1 6e 20 bd dc c5 24 3d
       0.045417044 -0.03440135 -0.039168242 0.040227756
000160 59 fb a3 3d 39 6b a1 bd e5 9a 6f 3d a9 f6 44 3d
       0.08006925 -0.07881779 0.05849733 0.048086796
000170 b8 c2 8f bc 17 8c ad 3d 22 65 68 3d 92 83 63 3d
       -0.017548904 0.08473986 0.056737073 0.055545397

Linear_Decoder.weight f4 [96, 96]
000000 08 84 75 3c 00 ff e5 39 c8 f2 68 bd 3e 73 91 3d
       0.014985092 0.00043868273 -0.05687216 0.07102059
000010 e0 ea bb bd 58 eb 63 bd 00 c5 9a 39 f7 6f b8 bd
       -0.09175658 -0.055644363 0.00029519945 -0.090057306
000020 e8 dc bb bc e2 f8 86 3d 9c 2b 47 bd a8 b7 b0 3d
       -0.022932485 0.065904394 -0.048625574 0.0862878
000030 ff 59 a8 bd 06 58 73 bd d8 eb 13 3d 7e 72 c9 3d
       -0.082202904 -0.059410118 0.03611359 0.09836291
000040 a0 78 3a bc f0 d5 2c 3c c4 1f 88 3d a8 18 49 3d
       -0.011381298 0.010549054 0.06646684 0.04909578
000050 10 a5 e5 bb e2 46 cb 3d 38 53 5a 3d 4a 22 a0 3d
       -0.0070082024 0.09925629 0.05330202 0.0781904
000060 b0 f2 26 3d f2 02 4e bd 0c db e7 bc 9c cb a9 3d
       0.04075879 -0.050295778 -0.028302692 0.082907885
000070 aa f6 cc 3d 80 26 97 3d 70 4e f2 3c f4 4c ad 3d
       0.10007985 0.0738039 0.029578418 0.08461943
000080 10 3e b8 3d c6 3d 94 bd a4 d4 ad 3d d8 9d fc bc
       0.089962125 -0.07238345 0.084878236 -0.030836985
000090 13 40 cb bd d8 7e 43 3c 5c 79 ad bc 60 76 c7 3b
       -0.099243306 0.011932097 -0.021176033 0.0060871094
0000a0 61 37 ca bd c0 0a 52 bb 8c 12 83 3c b8 76 54 bc
       -0.09873844 -0.0032049865 0.016000055 -0.012967758
0000b0 80 a6 8d 3d e0 02 74 bb 4c d4 60 3d f4 ed 65 3d
       0.06916523 -0.003723316 0.054889962 0.056135133
0000c0 34 2f c1 3d 08 14 6f 3d ec bb 08 3d f2 00 cb 3d
       0.094328314 0.058368713 0.03338234 0.0991229
0000d0 c2 18 94 bd 34 1c 9d 3d 78 0c 30 bc 7c db a7 bc
       -0.07231285 0.07671395 -0.01074516 -0.0204904
0000e0 98 0c a0 3c 1c a0 67 3d 64 33 0f 3d bc a0 cb 3d
       0.019537255 0.056549177 0.03496112 0.09942767
0000f0 65 05 37 bd bc 85 77 3d b0 93 f6 bc ee c3 20 bd
       -0.04468288 0.060430273 -0.03009972 -0.039249353
000100 f4 d4 8a 3d 78 e9 3a 3c aa dd bf 3d c0 66 cb 3d
       0.06778899 0.011408202 0.09368451 0.099317074
000110 51 19 54 bd 8a 8a a6 3d a0 7a 07 3d 61 71 b2 bd
       -0.051781956 0.08131893 0.03307593 -0.087130316
000120 d8 05 44 bd c7 3c 60 bd 48 6a 65 bc 6c 90 c9 3d
       -0.047857136 -0.05474546 -0.01400239 0.098419994
000130 68 93 1c bc 64 3f ba 3c 13 e8 41 bd c0 68 cd bc
       -0.009556629 0.022735305 -0.047340464 -0.025074363
000140 7a ba 97 3d 72 06 a3 bd d8 45 28 3d 0a cc cc 3d
       0.074086145 -0.07960214 0.041082233 0.09999855
000150 38 3e a3 3d 5c 07 86 3d 28 b3 62 bc 24 7f 8f 3d
       0.07970852 0.065443724 -0.0138366595 0.07006672
000160 e4 a0 9d 3c f8 c1 2d bc a0 af 24 3d 39 47 61 bd
       0.019241758 -0.010605328 0.04020655 -0.054999564
000170 a0 ce c0 3c 2a 6b b6 3d 8f 2d 31 bd 32 e7 ae 3d
       0.023536026 0.08907159 -0.04325634 0.08540191
000180 70 83 76 3c 30 d8 0b 3d bc f8 24 3d 3a 3d a5 3d
       0.015045986 0.03414172 0.040276274 0.08068319
000190 88 3d 51 bc bc a8 b1 3d 02 e0 82 bd b4 6e 7a 3d
       -0.012771018 0.08674762 -0.06390382 0.06114073
0001a0 3d e6 69 bd 80 1e 5d 3c 28 ad 1b 3d 34 26 91 bc
       -0.057104338 0.013496041 0.03800693 -0.017718412
0001b0 90 a0 92 bc 98 b9 c7 3c 90 7f 8a 3d 20 bf 61 3d
       -0.017898828 0.02438049 0.06762612 0.05511391
0001c0 6c 8d 13 3d 58 e7 ae 3c 14 fd 21 3d 26 69 86 bd
       0.036023542 0.021350548 0.039547995 -0.06563024
0001d0 6a 6e 90 3d 1e a8 b6 bd 80 bb bd 3c 7a 09 b3 3d
       0.0705231 -0.089187846 0.023160696 0.08742042
0001e0 56 5f ce 3d db f6 a0 bd 98 bd 01 3c 08 84 6a 3d
       0.10076778 -0.07859584 0.007918738 0.05725482
0001f0 50 cc 97 bb 38 b0 45 3d 0e 09 af 3d 48 3f c7 bd
       -0.0046325102 0.04826376 0.08546649 -0.09728867
000200 00 93 ca b9 ea 1b 49 bd 92 a1 6b bd 7e a9 cc bd
       -0.00038637966 -0.049098887 -0.057527132 -0.099932656
000210 0c db 26 bd 48 cb 88 bc ec b2 5d 3d d6 9d 8f bd
       -0.040736243 -0.016698495 0.05412571 -0.07012527
000220 3a 49 b3 3d 98 d5 63 bd 44 c4 3c 3d be 2c bb bd
       0.08754201 -0.05562362 0.04608561 -0.09139393
000230 a7 04 33 bd 25 e6 a8 bd 60 f9 36 bb 8a fd ac 3d
       -0.04370561 -0.082470216 -0.0027919635 0.08446796
000240 38 9b c1 3c c5 6b 7e bd 9e 08 84 bd a0 66 37 3d
       0.023633584 -0.062114496 -0.06446956 0.044775605
000250 b8 b8 fc 3c 29 07 7e bd a7 89 ca bd f4 ff 41 3d
       0.0308498 -0.062018547 -0.09889536 0.047363237
000260 d0 fd 2d 3d 55 32 7f bd a8 b5 b4 3c 4a 0f 8b 3d
       0.042478383 -0.06230386 0.022059277 0.067900255
000270 ee e0 a7 bd 60 4c 4c bc c2 0f c9 3d 08 5a ff 3c
       -0.08197199 -0.012469381 0.09817459 0.03117086
000280 c8 32 05 3d c0 8e a7 ba fe f0 c3 3d bc 5e ca bd
       0.032519132 -0.0012783632 0.0956745 -0.098813504
000290 e0 c7 ff 3b 76 36 cb 3d 4b be 97 bd 28 94 af bc
       0.0078058094 0.09922497 -0.074093424 -0.021432951
0002a0 7d a5 8d bd 2a 19 b4 3d e6 49 55 bd 08 9a 4f bc
       -0.0691633 0.08793862 -0.05207243 -0.012671001
0002b0 d4 1d 84 bd 34 4f 2d 3d 51 4f bd bd 28 d2 8c 3c
       -0.06451002 0.042311862 -0.09243644 0.017190054
0002c0 c0 66 bc 3a c6 67 12 bd 00 f9 bb bc 84 6b 74 bd
       0.0014373884 -0.035743497 -0.02294588 -0.059672847
0002d0 80 96 d0 ba dc 6f 54 3d 0b d2 c9 bd d4 0d 3a 3d
       -0.0015913993 0.05186449 -0.09854516 0.045423344
0002e0 f0 4b 7c bc 0c 88 9a 3d fc ff b3 3d 50 b6 ad 3d
       -0.015398964 0.0754548 0.087890595 0.08482039
0002f0 79 c2 b9 bd 60 f3 17 bd 54 a4 17 3d e0 96 49 bc
       -0.09070296 -0.037097335 0.03702195 -0.012304038
000300 0b e4 b3 bd b0 ba f2 bc 98 db fd 3c 58 df 3d 3d
       -0.0878373 -0.029630035 0.0309885 0.046355575
000310 38 7e 90 3d e5 42 55 bd a6 5d 06 bd 4c 1d 57 3d
       0.07055324 -0.05206575 -0.032804154 0.052518174
000320 85 b5 76 bd 32 9f bf 3d b0 ea 2f 3c c3 b4 be bd
       -0.060231704 0.09356536 0.010737106 -0.09311821
000330 a0 ce e8 3c 5d 4b b7 bd d8 bd 38 3c 1c b3 03 3d
       0.028418839 -0.08949921 0.011275731 0.032153234
000340 6d 7c c6 bd 80 61 31 ba 88 83 b7 3c 18 da ca 3c
       -0.09691701 -0.0006766543 0.022401586 0.024762198
000350 2a 04 85 bd 5e 18 b4 3d 5f 11 74 bd c0 98 53 3d
       -0.06494935 0.0879371 -0.05958688 0.051659346
000360 45 56 cd bd 70 f6 b5 3c 74 10 9d bd 48 72 61 3d
       -0.1002622 0.022212237 -0.07669154 0.055040628
000370 e0 c9 5e bb 50 03 ce 3c 00 1d 72 ba 78 0a ce 3d
       -0.0033994839 0.025148064 -0.0009235889 0.100605905
000380 fc 75 77 3d 58 85 34 3d 46 2f 27 bd c0 5b 1d bd
       0.060415253 0.04407248 -0.040816568 -0.038417578
000390 58 db 0b 3d 4c 31 c2 3d c0 98 63 3d ae ae 80 bd
       0.03414473 0.09482059 0.055565596 -0.062833175
0003a0 eb 74 7d bd 28 bb a8 bd a6 5d 8d bd 86 c0 a7 3d
       -0.06187908 -0.08238822 -0.06902628 0.08191018
0003b0 e7 a4 58 bd 2c 4a 23 3d 68 0d 23 3c 24 6f 2f 3d
       -0.052891638 0.039865658 0.009951927 0.0428306
0003c0 67 b8 96 bd c8 de 0f bd a2 3d cf bd 7c 89 ab 3d
       -0.07359391 -0.03512457 -0.101191774 0.083758324
0003d0 0a dc a2 3d 60 99 49 3c 2a 5a 8a 3d a6 d0 a6 bd
       0.07952125 0.012304634 0.06755479 -0.08145265
0003e0 20 47 1f bc 7c 8c c4 3d 40 06 c1 ba 00 1a b5 bb
       -0.009721547 0.09597108 -0.0014726594 -0.005526781
0003f0 48 b1 74 3d d0 49 3b 3d 43 de 9a bd 00 f5 91 b9
       0.05973938 0.04572469 -0.07561924 -0.00027839094

Linear_Decoder.bias f4 [96]
000000 bc 38 0e bd 60 c7 69 3d 02 8f b7 3d 10 79 73 3d
       -0.034722075 0.057074904 0.089628235 0.059441626
000010 54 82 89 bc 44 82 7f 3d 08 07 cf bd 20 45 28 3b
       -0.016785778 0.06238009 -0.10108763 0.0025675967
000020 1f ee ae bd e4 f8 0a bd 6c b8 63 3d 00 cd c7 b9
       -0.08541512 -0.033928767 0.0555958 -0.00038108975
000030 74 6a ce 3d ec 91 6d 3d a0 84 45 3c 00 8a 91 ba
       0.10078898 0.05800049 0.012055546 -0.0011103749
000040 7d 6e 66 bd c2 3f 80 bd dc 53 09 bd a4 f9 a4 3d
       -0.056257714 -0.06262161 -0.03352724 0.08055428
000050 40 cf d2 ba 3d 16 76 bd 88 06 44 3d a8 73 b8 bd
       -0.0016083494 -0.0600798 0.04785779 -0.09006435
000060 75 c9 9e bd d0 9d e5 3c de 11 1e bd c4 bf ef bc
       -0.07753269 0.028029352 -0.03859126 -0.029266246
000070 a0 5d a5 bb 80 28 31 3a d0 e2 b8 3d 54 3b ab bc
       -0.0050465614 0.0006758049 0.09027636 -0.020902313
000080 67 65 30 bd 43 c7 9e bd 04 31 ac 3d 35 49 5e bd
       -0.043065455 -0.0775285 0.084077865 -0.054269034
000090 2d 07 99 bd 48 27 9e bd 48 b2 b1 3d e1 db 2e bd
       -0.07472072 -0.07722336 0.086765826 -0.04269016
0000a0 73 e3 3a bd 58 b9 df 3c 71 31 22 bd 04 6b 01 3d
       -0.04562707 0.027310058 -0.039597932 0.0315962
0000b0 81 5e 86 bd 84 47 17 bd 40 66 05 3d d2 23 2f bd
       -0.06560994 -0.036933437 0.032568216 -0.04275877
0000c0 d4 6e 7d 3d 68 25 b4 3d b4 bf 8e 3d 89 48 73 bd
       0.061873272 0.08796197 0.06970158 -0.059395347
0000d0 a6 a0 c8 bd a4 f2 81 3d 08 59 c9 3c b0 dc 4f 3d
       -0.09796266 0.06345108 0.024578586 0.050747573
0000e0 4c 9b ae bd 04 45 69 3d 70 a0 8f bd 50 1a e3 3c
       -0.08525714 0.056950584 -0.07013023 0.027722508
0000f0 98 4e 09 3d 4a 63 d0 3d 48 a1 bf bc a4 de 92 bc
       0.03352222 0.10175188 -0.023392335 -0.017928429
000100 4e 05 a6 3d 3d ad 86 bd f0 97 02 bd f8 08 71 3d
       0.081064805 -0.06576011 -0.03188318 0.058846444
000110 f3 98 be bd a8 7d 93 3d 58 7a 61 3c bc 4d 80 3d
       -0.093065165 0.072017014 0.013762079 0.06264827
000120 64 dc 6d bd e6 6e ce 3d 7d 69 92 bd 9e 27 91 bd
       -0.05807151 0.10079746 -0.071490265 -0.070876345
000130 68 f2 cf bd 65 9a cd bd 52 b4 9d 3d 8c 52 a5 3d
       -0.10153657 -0.10039214 0.07700409 0.08072385
000140 20 b0 13 3b aa b8 1e bd 6c ce 3e 3d cc 80 34 bd
       0.0022535399 -0.038750328 0.046583578 -0.044068143
000150 bc aa b3 bc ea d7 1a bd d0 d8 1f 3d b8 91 a6 3c
       -0.021931998 -0.037803568 0.039025128 0.020333156
000160 28 65 03 bd 74 50 a7 bd 42 d7 45 bd 20 eb 30 bb
       -0.032078892 -0.08169642 -0.04830099 -0.0026995614
000170 a4 4b 9b bd 62 bc a9 3d c4 96 38 3d 42 6f 02 bd
       -0.07582787 0.08287884 0.045065656 -0.031844385
