checkpoints/test_DLinear_custom_ftM_sl96_ll48_pl24_dm512_nh8_el2_dl1_df2048_fc1_ebtimeF_dtTrue_test_0/checkpoint.pth (torch, 30039 bytes, 6 tensors)

Linear_Seasonal.weight f4 [24, 96]
0	0x3d110bf4	0.03541179
1	0x3d067fdc	0.03283678
2	0x3caddc2c	0.02122315
3	0xbbc853a5	-0.006113487
4	0xbce33d3f	-0.027739165
5	0xbcb06629	-0.021533089
6	0xbc8be915	-0.017078916
7	0xbc6b397e	-0.014356969
8	0xbc446f17	-0.0119893765
9	0xbc12397a	-0.008924836
10	0xbbac548a	-0.0052591013
11	0xbb29f438	-0.002593292
12	0xbade99b6	-0.0016983065
13	0xba8626fb	-0.0010235006
14	0xbad6b19b	-0.0016379835
15	0xbb867b8d	-0.004104084
16	0xbbeba09d	-0.0071907775
17	0xbc2ced8f	-0.010554685
18	0xbc73c4f6	-0.014878502
19	0xbc9ba935	-0.019001583
20	0x3ab7d7a2	0.0014026056
21	0x3c83b389	0.01607682
22	0x3cce353c	0.025171869
23	0x3d01f64f	0.03172904
24	0x3d0fc9b5	0.035104472
25	0x3d0ac2c4	0.03387715
26	0x3cefe8e7	0.029285861
27	0x3cb82f0c	0.022483371
28	0x3c39bcf5	0.011336555
29	0xbc5208b1	-0.012819455
30	0xbc534685	-0.012895231
31	0xbc264249	-0.01014764
32	0xbbf8aad7	-0.007588725
33	0xbb952b20	-0.00455226
34	0xba9f4370	-0.0012150835
35	0x3a49184e	0.0007671163
36	0x3aa1268d	0.0012294814
37	0x3adc4c89	0.0016807477
38	0x3a1bfafa	0.0005950179
39	0xbb16cf74	-0.0023011835
40	0xbbc1e4a5	-0.005917149
41	0xbc1d2f99	-0.009593868
42	0xbc6abe95	-0.014327665
43	0xbc9dea8e	-0.019276883
44	0x3a22ad06	0.0006205592
45	0x3c7e3279	0.015514963
46	0x3ccbe561	0.02488965
47	0x3d01ea8f	0.031717833
48	0x3d0fa04c	0.03506498
49	0x3d0abc92	0.03387124
50	0x3cefbbf0	0.02926442
51	0x3cb6aa41	0.02229798
52	0x3c2efa9a	0.010679865
53	0xbc6696f6	-0.014074078
54	0xbc674464	-0.014115427
55	0xbc39b371	-0.011334286
56	0xbc14b915	-0.00907733
57	0xbbd779f8	-0.006575819
58	0xbb815cf6	-0.0039478494
59	0xbb2bd580	-0.0026219785
60	0xbb2e4a34	-0.0026594521
61	0xbb2da508	-0.0026496071
62	0xbb6ff85f	-0.0036616547
63	0xbbd05ff2	-0.006359094
64	0xbc1a8800	-0.009431839
65	0xbc4f542e	-0.012654347
66	0xbc8aba23	-0.01693446
67	0xbca0bc97	-0.019621177
68	0x3b66ec09	0.0035235903
69	0x3c9a9106	0.01886798
70	0x3ce45375	0.027871827
71	0x3d0c1ae7	0.034205344
72	0x3d1936d2	0.037405796
73	0x3d163306	0.036669753
74	0x3d07b673	0.03313298
75	0x3ce55de6	0.027998876
76	0x3c9c1167	0.019051267
77	0xbc1b942e	-0.009495778
78	0xbc7168ab	-0.014734427
79	0xbc675cb8	-0.014121227
80	0xbc5f139c	-0.013615515
81	0xbc5307d3	-0.012880283
82	0xbc477966	-0.01217494
83	0xbc479210	-0.01218082
84	0xbc4bde6c	-0.012443166
85	0xbc4683ee	-0.012116415
86	0xbc4c2692	-0.012460368
87	0xbc63b267	-0.013897515
88	0xbc7e67ce	-0.015527679
89	0xbc8b5c7a	-0.01701187
90	0xbc9a0780	-0.018802404
91	0xbcb62b28	-0.022237375
92	0xbcbedf7f	-0.02329993
93	0x3c3cb061	0.011516661
94	0x3d04a05e	0.0323795
95	0x3d282d12	0.041058607
96	0x3d074c39	0.033031676
97	0x3d2280a1	0.03967345
98	0x3d199f4b	0.03750543
99	0x3ce70fdc	0.028205805
100	0x3bc2d0a9	0.0059452844
101	0xbcbc0f06	-0.022956382
102	0xbca9cf24	-0.020728655
103	0xbc8b00ea	-0.01696821
104	0xbc7013cc	-0.014653157
105	0xbc47c3f1	-0.012192712
106	0xbc0e7fe3	-0.008697483
107	0xbb91a942	-0.004445226
108	0xbad54ac9	-0.0016272898
109	0xba4c48f6	-0.00077928544
110	0x38c3ccd4	9.336477e-05
111	0xba68906f	-0.000887162
112	0xbb8b518c	-0.0042516645
113	0xbc0841b4	-0.008316446
114	0xbc4baa30	-0.012430713
115	0xbc921c2d	-0.0178357
116	0xbccb15d3	-0.02479068
117	0xbb982af2	-0.0046437914
118	0x3c5839da	0.013197387
119	0x3ccaa1d5	0.02473537
120	0x3d076f05	0.03306486
121	0x3d171307	0.03688338
122	0x3d124af0	0.035715997
123	0x3cfeddf4	0.031111695
124	0x3cc521ae	0.024063911
125	0x3c4c0845	0.0124531435
126	0xbc61aef8	-0.013774626
127	0xbc6dd3c8	-0.014515825
128	0xbc3e82b7	-0.011627845
129	0xbc112813	-0.008859652
130	0xbbadaff5	-0.0053005167
131	0xbab2ec0b	-0.0013650669
132	0x3a883bb9	0.0010393775
133	0x3af722d2	0.0018854982
134	0x3b290fc3	0.0025796748
135	0x3aaae27f	0.0013037472
136	0xbb203afd	-0.0024449222
137	0xbbe0eb98	-0.0068640225
138	0xbc39a376	-0.011330476
139	0xbc8d5264	-0.017251201
140	0xbccb1ac0	-0.024793029
141	0xbb9b8a62	-0.004746721
142	0x3c536d94	0.012904543
143	0x3cca2f35	0.024680713
144	0x3d07479c	0.033027276
145	0x3d1732ca	0.03691367
146	0x3d12541e	0.03572475
147	0x3cfeab54	0.031087555
148	0x3cc443c5	0.023958096
149	0x3c430741	0.011903585
150	0xbc7b881a	-0.015352273
151	0xbc7f28f2	-0.015573727
152	0xbc5043ac	-0.012711447
153	0xbc29108f	-0.010318889
154	0xbbf09002	-0.007341386
155	0xbb89370b	-0.00418747
156	0xbb267678	-0.0025400203
157	0xbb19d069	-0.002347017
158	0xbb022837	-0.0019860396
159	0xbb5f2f17	-0.0034055167
160	0xbbde2657	-0.006779473
161	0xbc2eb460	-0.010663122
162	0xbc6f0a84	-0.014589909
163	0xbca18c08	-0.019720092
164	0xbcca22ef	-0.02467486
165	0xbb16ce0d	-0.0023011
166	0x3c852462	0.0162527
167	0x3ce2df4f	0.027694372
168	0x3d115dd8	0.035489887
169	0x3d207bf6	0.03918072
170	0x3d1d8e31	0.038465682
171	0x3d0f5ed7	0.035002556
172	0x3cf31ac3	0.029675847
173	0x3cab032e	0.02087554
174	0xbc15ed61	-0.009150834
175	0xbc805949	-0.015667574
176	0xbc7863a4	-0.015160475
177	0xbc6e2b62	-0.01453671
178	0xbc5cb67b	-0.013471241
179	0xbc48f1cd	-0.012264681
180	0xbc3d2b0d	-0.011545909
181	0xbc329be7	-0.010901428
182	0xbc1ec6b1	-0.009690926
183	0xbc20e29b	-0.009819652
184	0xbc405d20	-0.011740953
185	0xbc628613	-0.013825911
186	0xbc7f9747	-0.015600032
187	0xbc8f31e5	-0.017479846
188	0xbcab3d6d	-0.020903314
189	0xbbe2f28a	-0.0069258856
190	0x3cda40dd	0.026642257
191	0x3d1d1530	0.038350284
192	0x3ccb2d6a	0.024801929
193	0x3d2461f5	0.04013248
194	0x3d30a248	0.043123513
195	0x3d26c491	0.040714804
196	0x3d092c5e	0.033489577
197	0x3c917f81	0.017760994
198	0xbc5d55cf	-0.013509228
199	0xbca572c6	-0.02019633
200	0xbc8d1573	-0.017222142
201	0xbc70a0fa	-0.014686817
202	0xbc3e68f7	-0.011621705
203	0xbbf58437	-0.007492568
204	0xbb4902e7	-0.0030671896
205	0xb9fff30a	-0.00048818468
206	0x39fc5526	0.00048128626
207	0x3a4d0751	0.00078212196
208	0xbaae2b0b	-0.0013287974
209	0xbbbbc88e	-0.005730695
210	0xbc2b00ec	-0.0104372315
211	0xbc773bc9	-0.0150899375
212	0xbcac28d6	-0.021015566
213	0xbce3904e	-0.02777877
214	0xbbfddbd5	-0.0077471533
215	0x3c5b1214	0.013371009
216	0x3cde77f5	0.02715681
217	0x3d10d83d	0.03536247
218	0x3d1de67d	0.03854989
219	0x3d17d2ad	0.03706615
220	0x3d0378cf	0.032097634
221	0x3cc6f59d	0.02428704
222	0x3c309628	0.010777988
223	0xbc84a391	-0.016191276
224	0xbc8662b4	-0.016404487
225	0xbc5592ba	-0.013035471
226	0xbc1c365b	-0.009534444
227	0xbbad57bb	-0.0052899993
228	0xba6a2751	-0.000893225
229	0x3afb3aca	0.0019167301
230	0x3b3b7e4a	0.002860921
231	0x3b4b4db9	0.0031021668
232	0x3a4d80b8	0.000783931
233	0xbb7fa9d2	-0.0039011133
234	0xbc14758b	-0.009061228
235	0xbc68a1d2	-0.014198737
236	0xbca848bd	-0.020542497
237	0xbce8c28b	-0.028413078
238	0xbbfce5c4	-0.00771782
239	0x3c59904c	0.013279032
240	0x3cde2aa6	0.027119946
241	0x3d1131a0	0.035447717
242	0x3d1e248c	0.038609073
243	0x3d17d8ab	0.037071865
244	0x3d0390e9	0.03212062
245	0x3cc664c3	0.024217969
246	0x3c2be075	0.010490526
247	0xbc8f996d	-0.017529214
248	0xbc8db03b	-0.017295947
249	0xbc670aa4	-0.014101658
250	0xbc3474ee	-0.011014206
251	0xbbf3581e	-0.007426276
252	0xbb809eaf	-0.0039251666
253	0xbb028f34	-0.0019921781
254	0xbacf3d64	-0.0015811143
255	0xbaf7604b	-0.0018873302

Linear_Seasonal.bias f4 [24]
0	0xbd846886	-0.06465249
1	0xbcdf748b	-0.027277252
2	0x3dacccae	0.08437477
3	0xbc92ad0c	-0.01790478
4	0x3d5541eb	0.052064817
5	0xbcd265e0	-0.025683343
6	0xbcac6ecd	-0.021048928
7	0xbb42e01c	-0.002973563
8	0x3ce6b9cb	0.028164765
9	0xbcd0068e	-0.02539375
10	0xbdaec04c	-0.085327715
11	0xbd660ffb	-0.056167584
12	0x3d5b4de0	0.053541064
13	0xbd84fdcb	-0.0649372
14	0x3d02ee56	0.031965576
15	0x3d3ff88b	0.04686789
16	0x3be5946f	0.00700622
17	0xbc297a84	-0.010344151
18	0xbbfe0eac	-0.007753214
19	0xbca8fd22	-0.020628516
20	0x3d67cd9b	0.056592565
21	0xbd2f5e2a	-0.04281441
22	0xbc96d263	-0.018410867
23	0x3d66878c	0.05628161

Linear_Trend.weight f4 [24, 96]
0	0x3d086276	0.033297025
1	0x3d08950b	0.033345263
2	0x3d088de0	0.033338428
3	0x3d078b62	0.03309191
4	0x3d043945	0.03228118
5	0x3cf821b3	0.030289507
6	0x3cd3986e	0.02582952
7	0x3c967b3b	0.018369308
8	0x3c155638	0.009114794
9	0x3ab1c7b4	0.0013563544
10	0xbb56a85f	-0.0032754166
11	0xbba4af10	-0.005025752
12	0xbbacccf2	-0.005273455
13	0xbbce3294	-0.0062926505
14	0xbc07f31e	-0.00829771
15	0xbc21de8d	-0.00987972
16	0xbc2e37c0	-0.010633409
17	0xbc324ec9	-0.010883042
18	0xbc31af0c	-0.010844957
19	0xbc2d8282	-0.0105901975
20	0xbc25b5b3	-0.010114121
21	0xbc1a7e66	-0.00942955
22	0xbc0d3f3e	-0.008621035
23	0xbc011435	-0.007878353
24	0xbbee0987	-0.0072643193
25	0xbbdb8160	-0.0066987723
26	0xbbcf7b80	-0.006331861
27	0xbbca0163	-0.006164716
28	0xbbc6ebdf	-0.0060705985
29	0xbbc200ad	-0.0059204907
30	0xbbb8f77d	-0.0056447373
31	0xbbab7128	-0.005231995
32	0xbb973ee3	-0.004615651
33	0xbb651db2	-0.0034960327
34	0xbac23b6a	-0.0014818732
35	0x3a91fe57	0.0011138421
36	0x3b35adb2	0.0027721939
37	0x3afa9db5	0.0019120487
38	0xb99dce51	-0.0003009909
39	0xbb18828b	-0.002327117
40	0xbb6d1b7e	-0.0036179717
41	0xbb915811	-0.004435547
42	0xbba3531f	-0.004984274
43	0xbbae3fb8	-0.0053176545
44	0xbbb133b2	-0.005407774
45	0xbbad8176	-0.005294974
46	0xbba6df76	-0.0050925566
47	0xbba530cd	-0.005041218
48	0xbba9f771	-0.005186968
49	0xbbb17168	-0.0054151304
50	0xbbbf078f	-0.0058297585
51	0xbbd13218	-0.0063841455
52	0xbbe08fb8	-0.00685307
53	0xbbe5b047	-0.0070095393
54	0xbbdbc35d	-0.0067066387
55	0xbbbe3d29	-0.0058056307
56	0xbb86ec0b	-0.004117494
57	0xbaabe452	-0.0013114309
58	0x3b3b7559	0.002860388
59	0x3bfd00ee	0.007721058
60	0x3c3bf439	0.011471801
61	0x3c4d645f	0.012536137
62	0x3c44df4c	0.012016129
63	0x3c39e95c	0.011347141
64	0x3c35c315	0.011093874
65	0x3c35623f	0.011070787
66	0x3c374329	0.011185446
67	0x3c3c4166	0.011490202
68	0x3c45d0af	0.01207368
69	0x3c53eae3	0.012934419
70	0x3c63cc33	0.013903665
71	0x3c708643	0.014680448
72	0x3c79dd4b	0.015250514
73	0x3c817f00	0.015807629
74	0x3c857bd2	0.016294394
75	0x3c89dbef	0.016828505
76	0x3c91f6d2	0.017817888
77	0x3c9fe303	0.019517427
78	0x3cb3e5c2	0.021960143
79	0x3ccde595	0.025133887
80	0x3ce86849	0.02837004
81	0x3d01e58d	0.031713057
82	0x3d100dcc	0.035169408
83	0x3d1d8083	0.038452636
84	0x3d2588ee	0.04041379
85	0x3d2ab1d3	0.041673493
86	0x3d300386	0.04297211
87	0x3d360999	0.044442747
88	0x3d3b1b58	0.045680374
89	0x3d3dfbef	0.04638284
90	0x3d3eac4e	0.04655104
91	0x3d3df23a	0.046373583
92	0x3d3c8d06	0.046032928
93	0x3d3af5fc	0.045644745
94	0x3d3963c8	0.045261174
95	0x3d37eea5	0.044905324
96	0x3cff4b2b	0.031163773
97	0x3cffc8c8	0.03122367
98	0x3d004010	0.031311095
99	0x3d00429c	0.031313524
100	0x3cfda0e1	0.030960502
101	0x3cf44665	0.029818723
102	0x3cddd181	0.027077438
103	0x3cb06472	0.021532271
104	0x3c4f4ff7	0.012653342
105	0x3b7c562b	0.0038503509
106	0xbb1be368	-0.0023786668
107	0xbbb2b124	-0.0054532457
108	0xbbb930ab	-0.0056515536
109	0xbb892fb5	-0.0041865953
110	0xbba8efe0	-0.0051555485
111	0xbbf0505a	-0.0073337974
112	0xbc151160	-0.009098381
113	0xbc24c7ca	-0.010057399
114	0xbc2b6140	-0.010460198
115	0xbc2cab43	-0.010538879
116	0xbc29dd38	-0.010367684
117	0xbc22cfdc	-0.009937253
118	0xbc179a8a	-0.009253154
119	0xbc0a15cf	-0.008428051
120	0xbbfb37dc	-0.007666571
121	0xbbe68087	-0.0070343646
122	0xbbd4db38	-0.0064958595
123	0xbbca3bda	-0.0061716856
124	0xbbc7ca87	-0.006097141
125	0xbbc76dac	-0.006086072
126	0xbbc4168f	-0.0059841345
127	0xbbbbe970	-0.005734615
128	0xbbaf326b	-0.0053465865
129	0xbb9a6b5b	-0.004712505
130	0xbb66442a	-0.0035135844
131	0xbaa74d70	-0.0012764167
132	0x3adf2f87	0.0017027714
133	0x3b6ecd8a	0.0036438429
134	0x3b37d54f	0.0028050726
135	0x39d17101	0.0003994778
136	0xbaeebc03	-0.0018213991
137	0xbb56d25b	-0.003277919
138	0xbb896604	-0.0041930694
139	0xbb9d3625	-0.0047977143
140	0xbba80d03	-0.0051285042
141	0xbbaa2c0c	-0.005193239
142	0xbba42e16	-0.0050103767
143	0xbb9b4508	-0.004738454
144	0xbb97a255	-0.004627506
145	0xbb9aeb8c	-0.0047277864
146	0xbba22b69	-0.0049490226
147	0xbbb0fee7	-0.0054014805
148	0xbbc63728	-0.0060490556
149	0xbbd847d5	-0.00660036
150	0xbbdefd3f	-0.0068050916
151	0xbbd52eeb	-0.006505837
152	0xbbb66ee4	-0.0055674184
153	0xbb786d1e	-0.0037906836
154	0xba5615e9	-0.0008166717
155	0x3b72770b	0.0036997225
156	0x3c14334c	0.009045433
157	0x3c56bc5f	0.013106435
158	0x3c6ce030	0.014457747
159	0x3c60c508	0.013718851
160	0x3c550cb0	0.013003513
161	0x3c4fd79a	0.012685681
162	0x3c4ed6f0	0.012624487
163	0x3c50c3cd	0.012741995
164	0x3c56cf80	0.013110995
165	0x3c62a0a4	0.013832245
166	0x3c73f7fa	0.014890665
167	0x3c83854e	0.016054776
168	0x3c8b6609	0.017016428
169	0x3c915058	0.017738506
170	0x3c96c34d	0.018403674
171	0x3c9ae6d4	0.018908896
172	0x3c9f0966	0.019413661
173	0x3ca699cd	0.02033701
174	0x3cb3aba6	0.021932434
175	0x3cc80cdb	0.024420192
176	0x3cdeef10	0.027213603
177	0x3cf7d40d	0.03025248
178	0x3d091f54	0.033477142
179	0x3d1738f3	0.036919545
180	0x3d1fb778	0.03899333
181	0x3d2343e1	0.039859656
182	0x3d23ab3a	0.039958216
183	0x3d24f684	0.040274158
184	0x3d28fae9	0.04125491
185	0x3d2e64c9	0.042576585
186	0x3d32d04e	0.043655686
187	0x3d352ec6	0.04423406
188	0x3d35b430	0.044361293
189	0x3d351321	0.044207696
190	0x3d33dcc6	0.043911718
191	0x3d3267a1	0.04355586
192	0x3cd80192	0.026367936
193	0x3cd86abc	0.026418082
194	0x3cd9508b	0.026527664
195	0x3cda1a1c	0.026623778
196	0x3cd8b16e	0.026451793
197	0x3cd1497e	0.02554774
198	0x3cbddbf9	0.02317618
199	0x3c961f7b	0.018325558
200	0x3c33652e	0.010949416
201	0x3b6ba169	0.0035954362
202	0xbae85f9d	-0.001772869
203	0xbb99b66f	-0.004690937
204	0xbba16fdd	-0.004926665
205	0xbb15c7d4	-0.0022854703
206	0xba69dcd2	-0.00089211494
207	0xbb0f99b4	-0.0021911683
208	0xbb9bf038	-0.004758861
209	0xbbe3de71	-0.0069540073
210	0xbc072038	-0.008247428
211	0xbc11de2b	-0.008903067
212	0xbc160dac	-0.009158533
213	0xbc1501aa	-0.009094635
214	0xbc0e46c1	-0.008683861
215	0xbc02f8fa	-0.007993931
216	0xbbeaf21c	-0.007169975
217	0xbbd2bde4	-0.006431328
218	0xbbc0896c	-0.005875757
219	0xbbb276fb	-0.0054463125
220	0xbbad771b	-0.0052937395
221	0xbbb0a4c4	-0.0053907353
222	0xbbb4ef5a	-0.005521697
223	0xbbb58d39	-0.0055405167
224	0xbbb066c3	-0.005383344
225	0xbba4432f	-0.0050128917
226	0xbb8d063c	-0.0043037217
227	0xbb3adc39	-0.002851261
228	0xb94c6e94	-0.0001949615
229	0x3b481415	0.0030529548
230	0x3ba2f3ef	0.004972927
231	0x3b7f7a58	0.0038982835
232	0x3aa231df	0.0012374482
233	0xbaa0a6d9	-0.0012256756
234	0xbb3ae644	-0.0028518597
235	0xbb7e3629	-0.0038789606
236	0xbb9446db	-0.004525048
237	0xbb9f9584	-0.0048701186
238	0xbb9fc9c7	-0.0048763487
239	0xbb97991d	-0.004626407
240	0xbb8d3d80	-0.00431031
241	0xbb887186	-0.0041639237
242	0xbb8c06e8	-0.004273284
243	0xbb9555da	-0.0045573534
244	0xbba7ed0b	-0.0051246933
245	0xbbc0b317	-0.005880724
246	0xbbd4e166	-0.006496596
247	0xbbdc40f5	-0.0067216107
248	0xbbd0f4e8	-0.0063768514
249	0xbbae0a35	-0.0053112754
250	0xbb577713	-0.003287737
251	0x390db14e	0.00013512859
252	0x3bab8efb	0.0052355505
253	0x3c3783c2	0.011200847
254	0x3c7aa51a	0.015298152
255	0x3c865669	0.016398625

Linear_Trend.bias f4 [24]
0	0x3d521870	0.051292837
1	0x3b6b7380	0.0035926998
2	0xbda496ea	-0.08036597
3	0xbc3be18e	-0.011467351
4	0xbd0525ec	-0.03250687
5	0xbd60dfc4	-0.0549009
6	0x3d28267a	0.04105232
7	0xbbc52f96	-0.0060176356
8	0x3d6322ce	0.055453114
9	0x3d49ad1d	0.04923736
10	0x3db50ff8	0.088409364
11	0x3d875db1	0.06609667
12	0x3d5cfa99	0.053949926
13	0x3d88c147	0.0667749
14	0xbd77644e	-0.060398392
15	0xbd00a8dd	-0.03141104
16	0xbd34714e	-0.04405337
17	0x3cd40015	0.025878945
18	0x3bad7456	0.0052934093
19	0x3c16ad6d	0.009196621
20	0xbd3cd6ca	-0.046103276
21	0x3d6ead3d	0.05827068
22	0x3be0f13b	0.0068646944
23	0xbcbed0c2	-0.023292903

Linear_Decoder.weight f4 [24, 96]
0	0x3d1c50bc	0.03816293
1	0xbd30b6d3	-0.043143105
2	0x3ca2329c	0.019799523
3	0x3dc22924	0.09480503
4	0x3c1af9d0	0.009458974
5	0xbdcb7046	-0.09933524
6	0xbbcca590	-0.0062453225
7	0x3d3db094	0.046310976
8	0x3dc218e8	0.09477407
9	0x3d970bfe	0.07375334
10	0x3db24222	0.0870402
11	0x3dca47d0	0.098769784
12	0x3c063378	0.008190982
13	0x3dcd9d7a	0.10039802
14	0x3b9a1ea0	0.004703358
15	0xbb1465c0	-0.0022643656
16	0xbdd0ae64	-0.10189512
17	0x3d895252	0.067051545
18	0xbdb9fb17	-0.09081095
19	0x3baeb280	0.0053313375
20	0xbd90d50e	-0.07071887
21	0xbdb1adcc	-0.08675727
22	0x3d22b5e0	0.03972423
23	0xbd261e48	-0.040556222
24	0x3d9d6f0e	0.076871976
25	0xbd6e0dd4	-0.058118656
26	0xbbe581e0	-0.0070040077
27	0x3dcf4112	0.10119833
28	0xbdbee410	-0.09320843
29	0x3a240900	0.00062574446
30	0x3c593cb8	0.013259105
31	0xbd37c702	-0.044867523
32	0xbd471a98	-0.048609346
33	0xbd1746fe	-0.036932938
34	0xbcb8d66c	-0.022563182
35	0x3c447738	0.011991315
36	0x3d73bd5c	0.05950676
37	0xbd413ea6	-0.047178887
38	0xbd6086fa	-0.054816224
39	0x3b9852f0	0.004648559
40	0x3cf3afb0	0.02974686
41	0xbdb9428b	-0.09045895
42	0x3dd02baa	0.10164578
43	0x3da64e36	0.08120386
44	0x3d361934	0.04445763
45	0xbdacf9fb	-0.084461175
46	0x3dba3398	0.09091872
47	0x3ca97180	0.020684004
48	0xbd12a832	-0.035804935
49	0xbd80f01a	-0.06295796
50	0x3d079d70	0.03310913
51	0xbcc62b70	-0.024190634
52	0xbd1d87ce	-0.03845959
53	0xbd69f367	-0.057116892
54	0xbdb6a11d	-0.08917449
55	0xbac35880	-0.0014903694
56	0xbbd98d20	-0.006639138
57	0xbd01cbb6	-0.031688415
58	0x3c1f9360	0.009739727
59	0x3d98c2fc	0.07459065
60	0x3cc579a0	0.024105847
61	0x3d8a0f4a	0.067411974
62	0xbdd018ef	-0.10161006
63	0xb9efbb00	-0.00045724958
64	0xbc8e00dc	-0.017334394
65	0x3db3c260	0.087773085
66	0xbd8910c0	-0.06692648
67	0xbbd7f340	-0.006590277
68	0x3db1e64c	0.08686504
69	0xbd907489	-0.07053477
70	0xbd2e6fc8	-0.04258707
71	0xbd1dc64e	-0.038519196
72	0x3db2eaea	0.087362126
73	0xbd672a66	-0.05643692
74	0x3da1e5ba	0.07905145
75	0xbb7dc080	-0.0038719475
76	0x3dc8a5fc	0.09797284
77	0x3da1b000	0.078948975
78	0x3d14e0b4	0.036347106
79	0xbdbbbe40	-0.09167147
80	0xbd780479	-0.06055114
81	0xbdaaef6a	-0.08346446
82	0xbd755b6d	-0.059901644
83	0xbd128758	-0.035773605
84	0xbda3e16c	-0.0800198
85	0x3d8ed998	0.069750965
86	0xbd64fa31	-0.055902664
87	0xbae74f40	-0.001764752
88	0xbdcb0468	-0.0991295
89	0xbd606058	-0.05477938
90	0x3b56b2a0	0.0032760277
91	0x3d78b4d4	0.060719326
92	0x3ab08d80	0.0013469905
93	0x3dae191a	0.085008815
94	0xbd852b6a	-0.06502421
95	0x3d2af47c	0.041737065
96	0x3c1b5b30	0.00948219
97	0x3db7e19c	0.089785784
98	0x3cb3e9dc	0.021962099
99	0x3db21204	0.086948425
100	0x3d868564	0.06568411
101	0x3bcabd80	0.006187141
102	0x3d5f4370	0.054507673
103	0x3d2238e0	0.03960502
104	0xbd432d0d	-0.047650386
105	0xbdbbba38	-0.09166378
106	0x3d810e7e	0.06301592
107	0x3b7b9d40	0.003839329
108	0xbbfda550	-0.007740654
109	0x3ba718b0	0.0050993785
110	0x3a82ad00	0.0009969771
111	0x3d05385c	0.03252445
112	0xbd25fdee	-0.04052537
113	0x3bf94430	0.0076070055
114	0x3dbde682	0.092724815
115	0xbc95fcf4	-0.018309094
116	0xbc0300b0	-0.007995769
117	0x3c9ea778	0.019366965
118	0xbdcbbab4	-0.0994772
119	0xbc10a330	-0.008827969
120	0xbd70eee5	-0.058821578
121	0x3ccd32a0	0.025048554
122	0x3ceefd88	0.029173627
123	0x3d9377b0	0.07200563
124	0x3db9044a	0.09034021
125	0x3d9deda8	0.07711345
126	0x3d5f0d4c	0.05445604
127	0x3dbc91ee	0.092075214
128	0x3cbd2230	0.023087591
129	0xbd11f6fe	-0.03563594
130	0xbd3f5e52	-0.04672081
131	0x3cc492f0	0.023995847
132	0x3d27928c	0.040911242
133	0x3ce0ce48	0.027442113
134	0x3c4f5938	0.012655549
135	0x3d920a46	0.07130866
136	0x3d78eab0	0.06077069
137	0x3d06eb20	0.032939076
138	0x3cf953c0	0.030435443
139	0x3ce26aa8	0.027638748
140	0x3d073ec0	0.033018827
141	0xbcd8029c	-0.026368432
142	0xbda7664f	-0.08173811
143	0xbda0ea29	-0.078571625
144	0x3cb7af08	0.022422329
145	0xbda02074	-0.0781869
146	0x3da9a36c	0.082831234
147	0x3d95bae2	0.07311036
148	0x3d3e862c	0.046514675
149	0x3d5ab060	0.05339086
150	0xbd4b0377	-0.04956385
151	0x3d92c23c	0.071659535
152	0xbd5e1a04	-0.05422403
153	0xbdc1e1d7	-0.09466904
154	0xbdbe4bd6	-0.09291808
155	0xbdcc46bc	-0.09974429
156	0x3d9f9812	0.07792677
157	0x3c108ea0	0.008823067
158	0xbc1f4618	-0.0097213015
159	0xbdce7cca	-0.100823954
160	0xbdc0c333	-0.09412231
161	0x3be24c30	0.006906055
162	0x3caa6de0	0.020804346
163	0xbd5dfe97	-0.054197874
164	0xbd2e42bf	-0.042544123
165	0x3dc7fb10	0.09764683
166	0x3d8c85b6	0.06861441
167	0xba52b200	-0.00080373883
168	0xbd5f7b89	-0.05456117
169	0x3dc38bde	0.09548162
170	0x3d304b7c	0.043040738
171	0x39bad800	0.00035637617
172	0x3d6e404c	0.058166787
173	0xbdc7ae67	-0.097500615
174	0xbb944010	-0.0045242384
175	0x3c973cbc	0.018461578
176	0x3d670548	0.05640152
177	0x3d75d9d8	0.060022205
178	0x3d0c5bc4	0.034267202
179	0xbda1d8fc	-0.079027146
180	0x3d639ee8	0.055571467
181	0xbd815a2b	-0.06316026
182	0x3d911f26	0.07086019
183	0x3d6841e8	0.056703478
184	0x3dbc7d78	0.09203619
185	0xbd347a4a	-0.044061936
186	0xbcb54a2c	-0.022130094
187	0x3d1ff73c	0.03905414
188	0x3d18f748	0.0373452
189	0x3bd06bf0	0.0063605234
190	0x3d2983d4	0.041385487
191	0x3c388030	0.011261031
192	0xbd28d7d3	-0.04122145
193	0xbdbd513c	-0.0924401
194	0x3cdb5118	0.026772067
195	0x3c0402b0	0.008057281
196	0x3a970a00	0.0011523366
197	0xbd4453b7	-0.0479314
198	0xbd78c524	-0.060734883
199	0x3dbcf734	0.09226838
200	0x3aede700	0.0018150508
201	0x3d0c5ea8	0.03426996
202	0xbd4aa0d2	-0.049469776
203	0x3daacd18	0.083399
204	0xbd816ea8	-0.06319934
205	0x3be95330	0.0071205124
206	0x3db464dc	0.088083
207	0x3d8d24a0	0.06891751
208	0x3d440744	0.04785849
209	0x3da50f66	0.08059578
210	0xbd87a1c0	-0.06622648
211	0xbd722336	-0.05911561
212	0xbdd0a0fa	-0.10186954
213	0xbcded604	-0.02720166
214	0xbd236c4b	-0.039898198
215	0xbd157232	-0.03648586
216	0x3a8dc0c0	0.001081489
217	0xbb67ab80	-0.0035350025
218	0x3d5509f4	0.052011445
219	0x3dcbdc22	0.099540964
220	0xbce702cc	-0.028199576
221	0xbc7ec570	-0.015550002
222	0x3dcb99a0	0.09941411
223	0xbda9d64c	-0.08292827
224	0x3b55f440	0.0032646805
225	0x3d65887c	0.056038365
226	0xbdb4bb38	-0.08824772
227	0x3c92a03c	0.017898671
228	0xbc9df7e0	-0.019283235
229	0x3ce15288	0.027505174
230	0x3d900e54	0.07033983
231	0x3dad7abc	0.08470675
232	0xbd8dab0c	-0.0691739
233	0x3d97e5d8	0.07416886
234	0xbc41bbc8	-0.011824556
235	0x3d381dac	0.044950172
236	0x3d7d9e08	0.06191829
237	0xbdb70e36	-0.089382574
238	0x3d8f4194	0.0699493
239	0xbd975d2b	-0.07390817
240	0xbc7a4620	-0.015275508
241	0xbd530888	-0.051521808
242	0x3a95b780	0.0011422485
243	0xbdb6cd06	-0.08925824
244	0xbda5effa	-0.081024125
245	0xbda3bfee	-0.07995592
246	0x3c634708	0.013871916
247	0xbc421b00	-0.011847258
248	0xbcb53b70	-0.022123069
249	0xbcb7b39c	-0.022424512
250	0xbda24505	-0.07923321
251	0xbda2cbe6	-0.07949047
252	0x3d37ee50	0.044905007
253	0xbd46af43	-0.048506986
254	0xbcdd34f8	-0.027002797
255	0x3c8a1450	0.016855389

Linear_Decoder.bias f4 [24]
0	0x3c48b268	0.012249567
1	0xbd836526	-0.06415777
2	0x3d9ec66e	0.07752691
3	0xbd97efd6	-0.07418792
4	0xbc4c3c80	-0.012465596
5	0x3d59148c	0.05299811
6	0x3d31f044	0.043442026
7	0xbd775a4c	-0.06038885
8	0x3d5d5090	0.05403191
9	0x3d596814	0.053077772
10	0x3dad11ae	0.08450638
11	0x3ccb3fd0	0.024810702
12	0xbd1eab0c	-0.03873734
13	0x3d734b98	0.059398264
14	0x3d17728c	0.036974475
15	0x3be84030	0.00708773
16	0xbd946a3f	-0.07246827
17	0x3d353de8	0.04424849
18	0x3d673e7c	0.056456074
19	0x3d02fb8c	0.031978175
20	0x3d860d34	0.06545487
21	0xbc7a3758	-0.015271984
22	0x3ce30438	0.027711973
23	0xbd081c18	-0.033229917
